ann_checkpoint.pt (torch, 629060 bytes, 56 tensors)

hid1.weight f4 [30, 12]
000000 55 ee de bc e7 97 a1 3d 01 53 1d 3e cd 8b 65 3e
       -0.027213255 0.07890301 0.15363695 0.22416611
000010 a7 f4 6e be 55 4d bb 3d a4 00 93 be 74 f9 40 3e
       -0.23335515 0.09145609 -0.28711426 0.18845159
000020 7b 77 12 bd 4f f9 83 bb 86 db 08 bc d8 51 4e bd
       -0.035758477 -0.0040275226 -0.00835312 -0.05037102
000030 08 e8 e5 bd cc df 06 be 6d 53 17 3e e0 96 9a 3e
       -0.11225897 -0.13171309 0.14777918 0.30193233
000040 1b 6f 5f be e8 f7 58 3d 08 3e 6d be 2f 73 52 bc
       -0.21819727 0.052970797 -0.23168194 -0.012844845
000050 f9 06 54 bd cc 48 7b 3c 95 7b c6 bd ec d6 21 be
       -0.051764462 0.01533718 -0.0969154 -0.15804642
000060 db d1 59 be 29 86 aa bd 0d 9b 2b bd b2 df 87 3d
       -0.2127146 -0.0832637 -0.041895915 0.06634463
000070 71 ef 8c be 8e 64 a1 3e eb 2b b2 3e 89 00 61 3e
       -0.2752643 0.3152203 0.34799132 0.2197286
000080 0b fb 50 3c 4e a2 22 3d f1 99 49 3d 66 95 9d 3c
       0.012755166 0.039705567 0.049219076 0.019236278
000090 ee 33 15 be b1 d9 ea bd e9 85 86 bd 50 90 a2 be
       -0.14570591 -0.114673026 -0.0656851 -0.31750727
0000a0 a8 e8 93 be e5 63 a7 3d 95 a3 24 be a2 a9 91 be
       -0.2888844 0.0817335 -0.16078027 -0.28449732
0000b0 98 34 a9 bc 88 0d 10 3d e5 dc b6 3d ee f0 29 bc
       -0.020654961 0.035169154 0.08928851 -0.0103723835
0000c0 a5 7a 91 3e ed 66 4b 3e 3e ea 13 3e 0b f3 2f 3e
       0.28413883 0.19863482 0.14444825 0.17182557
0000d0 7b ce a9 be e6 ef 16 3d e3 7b 89 3e 83 3e fc 3d
       -0.33165345 0.03684988 0.2685233 0.12316611
0000e0 54 d8 71 3d 1f 42 ea bc 3a f1 f2 bd 86 35 f4 3c
       0.059044197 -0.028595982 -0.118624166 0.029810678
0000f0 57 02 ac be aa 74 3a 3e 20 78 1c 3c 48 4e 80 be
       -0.33595535 0.18208566 0.009550124 -0.25059724
000100 85 b4 20 be fa 0b 6c bd 83 6d 65 bd 62 e8 a7 bd
       -0.15693863 -0.05762861 -0.05601264 -0.081986204
000110 92 c9 3f bc 71 b1 5a bd 37 b4 01 be b3 8b cf bc
       -0.011705773 -0.053391878 -0.12666403 -0.025335168
000120 54 24 95 3e 5d 6e c4 bd b7 2a 83 bd d8 1d 4f be
       0.2912928 -0.095913626 -0.064046316 -0.20226228
000130 39 04 c6 bd 40 21 83 3e 0c 54 9b bc ec 49 de 3d
       -0.09668774 0.25611305 -0.018960975 0.10853943
000140 b7 45 1b bc aa 0c 38 3c 7d 41 23 bd df 67 98 bd
       -0.0094770705 0.011233488 -0.039857376 -0.07441687
000150 77 ad 7d be d5 1d e4 3d a5 c8 8a 3d 89 9a 8b be
       -0.24773203 0.111385025 0.06776551 -0.27266338
000160 06 89 08 3d 5b 4e c9 3d de f9 0d be 69 92 87 3d
       0.0333338 0.09829398 -0.13864848 0.066197224
000170 ca 5e 22 3d 43 d7 95 3c 7b b8 5c 3d 61 ff ab 3d
       0.03964118 0.018291121 0.05388687 0.08398319
000180 57 51 e2 3d 62 14 ed bd 13 6e 11 3e dd ae 76 be
       0.110506706 -0.11576153 0.14202146 -0.24090143
000190 5d e0 59 3e d6 9a 2b bc 56 c3 00 bf ac 6a 46 bd
       0.21276994 -0.0104739275 -0.5029806 -0.048441574
0001a0 e7 2c 40 3d 36 55 2d 3d 0f 94 87 3d 3c a4 b9 3d
       0.046917822 0.04231759 0.06620037 0.09064528
0001b0 56 c4 2f 3e aa 4c cd bd e1 e2 8f 3d 72 be c9 3d
       0.1716474 -0.10024388 0.070256956 0.09850778
0001c0 33 0f a9 bd 42 cd f1 bc e4 34 7a bd 82 bc f2 be
       -0.08254852 -0.02951682 -0.061085597 -0.47409445
0001d0 41 42 6c bc f5 df 4b 3c 85 94 a8 3d 8e f1 76 3c
       -0.014420093 0.012443532 0.08231453 0.01507224
0001e0 28 ea ee bd c9 37 e2 bd 56 05 51 3d 55 05 99 3e
       -0.116657555 -0.110457964 0.05103048 0.2988688
0001f0 be c8 5e 3d b6 37 50 bc c3 1a 25 3e dc 64 2e be
       0.05439066 -0.012708595 0.1612349 -0.17030662
000200 8c a0 3d 3d d5 0f ec 3c 11 0a 75 3d 73 15 d4 3d
       0.046295688 0.028816143 0.059824053 0.103556536
000210 e9 ac 2a be ae ca 42 bb e2 49 da bd 32 7e 7e 3d
       -0.16667522 -0.0029722857 -0.10658623 0.062132068
000220 1a ce db bd d7 92 b4 3d 20 49 99 3e 7b 1d 05 bf
       -0.1073267 0.0881707 0.29938602 -0.5199811
000230 9d b1 26 bd 97 d1 ba 3b 75 09 91 bd 35 eb e3 bd
       -0.04069673 0.0057012546 -0.07081882 -0.111288466
000240 61 65 67 3e e3 8a 74 3c 16 8f ac bd 93 2d 9c be
       0.22597267 0.014925691 -0.08425729 -0.3050352
000250 a2 f0 ab 3e 6c d6 cd bd f1 16 58 3e a7 b4 b3 bd
       0.33582026 -0.10050663 0.21102501 -0.08774691
000260 3a 99 ec 3c be 78 4e 3c 7a 12 2e bb 72 05 8a 3a
       0.028881658 0.012602029 -0.0026561306 0.0010530187
000270 94 8f d3 bd 02 c7 44 3e 93 e4 46 3d eb c2 b4 3e
       -0.1033012 0.1921654 0.04855783 0.3530496
000280 1d 9d 12 3e b3 b3 3b be 33 aa 08 be f0 56 95 be
       0.14317746 -0.18330269 -0.13346176 -0.2916789
000290 f4 f5 4b 3d cc 5f af bc c0 d4 3f bd 48 0c 37 3d
       0.049795106 -0.021407984 -0.046833754 0.044689447
0002a0 fd 38 a5 3d 21 3b fb 3d f5 10 28 3c b7 92 b0 be
       0.0806751 0.12267137 0.010257949 -0.34486935
0002b0 b0 b9 34 bc a0 e9 e3 3d 5f 70 87 3e 4e e6 41 be
       -0.0110305995 0.11128545 0.2645292 -0.1893551
0002c0 f3 14 39 bb 73 b0 9f bc 24 b9 23 be 10 c7 cd bd
       -0.0028241246 -0.019493317 -0.15988594 -0.10047734
0002d0 67 44 2f be 9b 71 5b be 7a 1c b2 3c 99 2b c1 bd
       -0.17115937 -0.21430056 0.021742094 -0.09432144
0002e0 b7 be b0 3d 96 ba 78 be 67 de 5f 3e b7 44 8d be
       0.08630126 -0.24289927 0.21862184 -0.27591488
0002f0 7e 4a 85 bc a6 43 39 3d 7b 3f 82 3d 89 1a f3 bb
       -0.016270872 0.04523053 0.06359764 -0.0074189347
000300 79 97 57 3e 52 aa 42 3d d4 b7 57 3d 50 a1 44 3e
       0.21053876 0.04752571 0.052665547 0.19202161
000310 fb ca d5 3d 24 45 92 be 3e 3e 54 be 5f 28 87 3e
       0.10439106 -0.28568375 -0.20726869 0.26397988
000320 52 ac bb bc 56 aa e7 bc ec 61 c4 bc 0f f7 0c bd
       -0.022909317 -0.028279465 -0.023972474 -0.0344153
000330 0e e7 89 3e d3 77 a0 bd e1 34 53 3d b0 c6 ac be
       0.26934093 -0.07835355 0.0515641 -0.33745337
000340 03 8c 1d be 37 f2 81 be cd ca 79 3d 4c 05 b9 be
       -0.15385441 -0.25380108 0.06098442 -0.36136854
000350 8d ec 22 bd a7 85 81 bc 79 e1 94 bd 4a 7f e9 bd
       -0.039776374 -0.0158108 -0.07269568 -0.114012316
000360 2f 97 02 be b1 64 26 3e 78 60 2f 3e dc 0d bd be
       -0.12752984 0.16249348 0.17126644 -0.36924636
000370 d7 bc 76 be 0c 99 ef bd 40 2e 97 bd 2a a1 1d 3e
       -0.24095474 -0.11699113 -0.07381868 0.1539351
000380 f5 3d 72 3b 2d 2f 17 bd 59 00 a3 bd 9b 14 2c 3c
       0.0036963199 -0.036910225 -0.07959051 0.01050296
000390 ad 56 cb 3d 35 0e 1c be 84 38 26 3e 8d c8 b6 be
       0.099286415 -0.15239795 0.16232497 -0.35699883
0003a0 3f c7 74 bd b0 60 8a bd af 9b 8e 3e 90 4d 3c be
       -0.05976033 -0.06756723 0.27853152 -0.18388963
0003b0 48 72 a2 ba c1 f2 f4 3c fc b8 b2 3d 28 d9 fd 3c
       -0.0012393678 0.02990091 0.08726689 0.030987337
0003c0 d6 06 88 3e 2b ed 8c 3d ad 86 18 3c e4 a9 72 bd
       0.26567715 0.06881174 0.009309453 -0.05924405
0003d0 71 36 cf bd dd 9f be 3c 9e 55 b6 3e 4d 1f 4f 3e
       -0.10117806 0.023269588 0.35612196 0.20226784
0003e0 0c 2e 15 3b 0d bf 05 bd 7f cf 57 bd d3 76 51 3c
       0.0022763042 -0.032652903 -0.052688118 0.012784678
0003f0 45 4e a2 3e 84 45 96 3e 8c e8 a0 3d b6 ec 16 3e
       0.3170034 0.2934991 0.07856855 0.14738736

hid1.bias f4 [30]
000000 b8 79 07 3e b4 03 4d bd 4d 78 d2 bd 34 ed 00 bd
       0.13230026 -0.05005236 -0.10276852 -0.031476215
000010 07 5f 24 3e 36 84 3b 3e ef cd 82 3e 5e 4b 0c be
       0.16051875 0.18312153 0.2554774 -0.13700625
000020 54 c4 42 3e 76 5a 77 3e 52 0d 53 be 2d 81 fc bd
       0.19020206 0.24155602 -0.2061055 -0.12329326
000030 58 4f 2f be 8d 06 83 3e 36 66 28 be a8 4b 92 3e
       -0.17120111 0.25590935 -0.1644524 0.28573346
000040 6f 25 bf 3d 63 f6 c9 bc b7 f3 ad be 10 03 39 3e
       0.09333312 -0.02465362 -0.33975002 0.18067575
000050 e4 f9 77 3e fa 90 52 bd 19 7d c5 bc e5 e2 42 bd
       0.2421642 -0.05140779 -0.024107503 -0.047579665
000060 e9 c2 ad 3d 2e b7 09 3e a9 ad 64 bd 19 de 0b 3e
       0.08484442 0.13448784 -0.055829678 0.13658942
000070 fd 3b 0b be bb 64 94 bd
       -0.13597102 -0.07245775

hid2.weight f4 [100, 30]
000000 47 f7 83 bf 02 e6 8d bc 09 9d 0b bb e0 5e 87 3d
       -1.0309838 -0.01732159 -0.0021303317 0.06609893
000010 11 47 44 3d 37 13 85 bd 21 24 37 bd e4 97 03 be
       0.047919337 -0.064978056 -0.04471219 -0.1285091
000020 23 75 33 be 2e 56 9b be 22 c6 0a 3d b6 5d b2 bd
       -0.17525153 -0.30339187 0.03388036 -0.0870928
000030 24 46 8a 3e 1b d5 a3 bd e5 54 95 3d 8b 25 ca bd
       0.27006638 -0.07999631 0.07291583 -0.09870442
000040 b3 7e 9f bc c3 c7 c7 3d d9 73 d2 be 46 33 a8 3d
       -0.019469595 0.097548984 -0.4110401 0.08212905
000050 2e 35 30 3e 40 42 09 3d 3e 50 20 bf 9d 74 e8 3d
       0.17207786 0.033510447 -0.6262244 0.11350367
000060 0d b1 75 be 0d 1d 1f 3e 07 33 09 3e 50 16 a6 bd
       -0.23993321 0.15538426 0.13398372 -0.081097245
000070 21 c3 bd bd 62 32 81 be 7b db 78 bd 09 3c 21 be
       -0.092657335 -0.25233752 -0.060756188 -0.15745558
000080 e9 d8 46 be 8f 94 08 be a9 f2 f3 3d 99 13 3a 3e
       -0.19418682 -0.1333792 0.11911518 0.18171538
000090 8e 3b 08 bd 54 5c 3f 3d e4 08 2b 3e 5a fe b4 bd
       -0.03325992 0.04671891 0.1670261 -0.08837576
0000a0 8b 51 b5 3d b6 04 78 3e 74 49 1d be 45 c6 14 be
       0.08853444 0.24220547 -0.15360051 -0.14528759
0000b0 c3 4f 85 bd d8 e3 df 3c 18 b0 25 3c 02 c6 be bd
       -0.06509354 0.027330324 0.010112785 -0.09315111
0000c0 18 7e cc 3d b7 ec 40 3d ec 46 09 be da a6 05 be
       0.09984988 0.04710075 -0.13405961 -0.1305193
0000d0 26 df 08 be f3 b6 b7 3d 87 3a 1d be ec 40 2b bd
       -0.13366374 0.08970442 -0.15354358 -0.04180996
0000e0 b8 a2 44 be 21 3a 7a 3d a8 3b dc bd 42 7d a4 3d
       -0.19202697 0.061090592 -0.10753566 0.080317035
0000f0 a7 68 87 3c b8 ae b5 3d 8c c3 4e 3e 9e ff b2 bd
       0.016529394 0.088712156 0.20191783 -0.08740161
000100 0e 5e a2 bd c8 ed 88 3e b0 85 67 be f0 9e 85 3d
       -0.07928096 0.26743913 -0.22609591 0.065244555
000110 96 be 16 be 2e 7d a4 bd ca 65 1a bb 7b 00 0a 3d
       -0.1472114 -0.08031689 -0.0023559206 0.033691864
000120 a3 2d 74 3d 5c 66 27 3d 1b a0 a8 3d 4f d2 65 3d
       0.059613835 0.040869102 0.08233663 0.05610877
000130 9d 0f 66 be 64 e1 20 3d c6 de 3e 3e be 2c 58 3d
       -0.22466893 0.03927745 0.18639669 0.052777044
000140 5a 6c 84 bd 4a 0a 6c bd 42 0f 5a bc d9 5e 03 3e
       -0.06465979 -0.057627 -0.013309302 0.1282915
000150 ff 88 0c 3d 74 79 4e bb 05 10 3a 3e c2 44 8a 3c
       0.034310337 -0.0031505497 0.18170173 0.01687849
000160 9c 63 6d be 3e 1d 20 3e 1a df e8 bd b0 1b 62 3b
       -0.23182529 0.15636155 -0.11370678 0.0034501366
000170 04 5e b2 bd 6d 63 91 bd e4 0f 22 3e e5 5b 25 3d
       -0.08709338 -0.07099042 0.15826374 0.04037084
000180 a1 e1 b1 3d 18 a6 20 3d 50 de f6 3d 01 38 67 be
       0.086856134 0.0392209 0.120541215 -0.22579958
000190 d2 25 07 3e 70 9e 8f bb c9 60 cb 3d b5 61 13 bd
       0.13198021 -0.004382901 0.0993057 -0.035981853
0001a0 8f e3 a8 bb 12 a8 af 3c 3e 6a 36 3e 54 63 2c be
       -0.00515408 0.021442447 0.17813966 -0.16834766
0001b0 60 0e 9a 3c 31 ea 58 be 24 fc 25 3d 58 77 ec bd
       0.018805683 -0.21183087 0.040523663 -0.115462005
0001c0 21 87 db 3d 39 e0 02 be 5a a9 fb bc 91 bf 4f be
       0.10719133 -0.12780847 -0.030720402 -0.2028792
0001d0 98 ea 8a 3e 96 44 c2 bd c8 5a 0b be 80 dc bb 3d
       0.27132106 -0.09485738 -0.13608849 0.091729164
0001e0 6d 4f ce bc fe 6e 9d bc 6f bb 39 bd 46 a7 bc 3d
       -0.025184358 -0.019217964 -0.045344766 0.092115924
0001f0 a0 9e 02 bd 55 6a 1a 3e e8 a4 a3 bd cf db ef bc
       -0.031889558 0.15079625 -0.07990438 -0.029279618
000200 ed 69 6a bd a9 ed 96 3c ff db 18 3e e1 f4 f1 bd
       -0.057229925 0.018423872 0.14927672 -0.11814285
000210 24 27 ba 3b 63 fe 98 38 c1 73 9b 3d 9c cf 09 3e
       0.0056809355 7.295308e-05 0.07590438 0.13458103
000220 b4 57 99 3d 24 fb 1e be 50 21 b6 3d 3d d8 c3 bd
       0.07487431 -0.1552549 0.088930726 -0.095627286
000230 fd e8 92 bc d9 9a c3 bd c4 ac be 3d 41 e4 df 3d
       -0.017933363 -0.09551019 0.09310296 0.10932208
000240 f5 c9 b7 3d 94 d4 bb bd 0b 27 0b 3e 61 c5 14 be
       0.08974067 -0.091714054 0.13589112 -0.14528419
000250 f7 58 16 3e e9 47 28 be 02 b0 00 3d 5b ec 63 bd
       0.14682375 -0.16433682 0.031417854 -0.055645328
000260 26 48 95 3d 31 95 1c be 7e 0f 03 3e eb 10 d2 3d
       0.07289152 -0.15291287 0.12798879 0.10257133
000270 20 cf 18 bd 44 f8 2a 3b a6 a6 d1 3d 4d c4 05 bc
       -0.037306905 0.002608792 0.10236864 -0.008164478
000280 65 0b 85 bb f0 6a cc 3d e3 6d 17 be f8 52 bc bd
       -0.004060196 0.09981334 -0.14788012 -0.091955125
000290 64 50 1f 3c cb 73 e7 3d b1 38 ee bd 23 95 ff bd
       0.009723756 0.11301383 -0.11631907 -0.124796174
0002a0 0f 4d 28 3e aa 67 a6 bd 59 df 26 be 8b f7 d2 3d
       0.16435646 -0.08125241 -0.16296138 0.10301121
0002b0 84 89 ed bd b8 3a c9 3d ec cd d0 3d dd d6 18 3e
       -0.11598495 0.09825653 0.101955265 0.14925714
0002c0 54 61 14 3e 97 63 ac bd 60 af c5 bd 49 22 b6 3d
       0.14490253 -0.08417433 -0.09652591 0.08893258
0002d0 5b 5d 4b bd a5 db 2e 3e cf 81 05 bd f8 c0 86 bd
       -0.049649578 0.17075975 -0.0325945 -0.065797746
0002e0 5c 7f 8b bd 75 c4 e2 bd a9 e2 bb bc 08 c4 4d 3e
       -0.06811401 -0.110726275 -0.022935228 0.20094311
0002f0 4c ee 98 be c1 20 18 be 45 b7 cf 3d e9 c6 d4 bd
       -0.29869306 -0.14856245 0.10142378 -0.103895016
000300 27 f4 8d be 52 4f 17 3e 94 1c ca be 75 f4 aa bd
       -0.27725336 0.14776352 -0.39474928 -0.08347408
000310 fc 9e 29 3d 13 32 0c 3e 72 5f f8 bd b1 cb 69 be
       0.041411385 0.13690977 -0.1212758 -0.22831608
000320 b2 f1 b1 bb ab 6d 5a 3d d0 70 7c 3d 39 6f 73 be
       -0.0054304237 0.053327244 0.061631024 -0.23772897
000330 c3 65 c8 3d 50 bd ae be 58 6b 6f 3e b4 b1 f7 3d
       0.097850345 -0.3412881 0.23380792 0.12094441
000340 07 05 c7 bd 41 07 1f bb 66 92 2b bd 8e 8c fa 3d
       -0.09717756 -0.0024265798 -0.041887663 0.1223384
000350 9e cf e8 3b c5 fa 81 3d 2f 9e 12 3d f3 2c 8c 3c
       0.007104828 0.063466586 0.035795387 0.017111277
000360 51 db 38 3e 93 a1 c3 3d 79 a6 23 be c5 ba eb 3d
       0.18052413 0.09552302 -0.15981473 0.11510233
000370 2e 6d e8 3d c5 23 50 bd 50 2e ba 3d 4e d9 66 3d
       0.113489494 -0.050815362 0.09090865 0.05635958
000380 cc c4 a2 bd d1 84 f6 bd 40 38 15 3d 8f ac 05 3d
       -0.07947692 -0.120370515 0.036430597 0.032635268
000390 d2 df 58 3d e5 2d 19 3e 8f 40 d3 3a 2c b1 5b 3c
       0.052947827 0.14958914 0.0016117262 0.01340894
0003a0 14 6c 90 3b d2 bd 12 3e cb 2f 29 3b 7e 65 7a bd
       0.004407415 0.14330223 0.002581584 -0.061131947
0003b0 dc 44 51 3d ff 6e 24 3d 62 ed 53 bd e8 95 09 be
       0.05109106 0.040144917 -0.051740058 -0.13436091
0003c0 26 63 15 3d 1d 4e 25 bd 92 89 82 bd 4e 60 7b ba
       0.03647151 -0.040357698 -0.06373896 -0.00095892407
0003d0 4a 18 b2 bd 53 8a 0d be 67 4b 37 3e d9 3b 0b 3e
       -0.08696039 -0.13822298 0.17899857 0.13597049
0003e0 15 7e 3c bd c1 bc 83 3e 12 93 6c 3e e6 6d 38 3e
       -0.04601868 0.25729945 0.23102978 0.18010673
0003f0 38 c6 8d 3d 7b a5 39 bd 2b 00 56 3d 7a 91 10 be
       0.06922573 -0.04532383 0.052246254 -0.14117995

hid2.bias f4 [100]
000000 89 05 37 be 55 26 74 3d f9 4e 41 be f9 e1 e9 3c
       -0.17873205 0.05960687 -0.18877782 0.028550135
000010 1d 31 a7 3d a7 c1 d8 3d 53 b6 2e be 48 e7 d7 bc
       0.081636645 0.10583811 -0.17061739 -0.0263554
000020 bc b3 62 be 6e 0c 0f 3e ef 87 bd 3d 83 1e 03 be
       -0.22138876 0.13969585 0.09254443 -0.12804608
000030 36 0c fc 3a e6 26 b7 3c 7d 7c 24 3d 0f bc a0 bd
       0.0019229713 0.022357415 0.040157784 -0.07848369
000040 68 9f 23 be 26 11 56 be 70 f2 24 be ca 2c c1 bb
       -0.15978777 -0.20904979 -0.16108108 -0.005895232
000050 2a 83 21 bd b0 bb d2 3d 13 f1 3a 3e e1 6b 26 3d
       -0.03943173 0.10289705 0.18256025 0.040630225
000060 aa 84 49 be b4 ea 02 3e 9f 21 89 bd 14 fe be 3b
       -0.19679514 0.12784845 -0.06695866 0.0058286283
000070 ab 2d 26 be 93 63 39 be 03 c8 14 3e b8 37 9c 3d
       -0.16228358 -0.18104391 0.14529423 0.07627815
000080 92 d2 3d 3e 4f 34 5b bd 3b 0f 85 3d 03 5d fc 3c
       0.18537357 -0.053516682 0.064970456 0.03080607
000090 21 d5 79 3d 1c 76 3d 3e 5b 81 85 3d 65 3e df bd
       0.06099427 0.18502086 0.06518813 -0.10900573
0000a0 28 3e 9b bd 73 f5 0c 3e f0 52 28 3e 7c 9c a7 bc
       -0.07580215 0.13765506 0.16437888 -0.02046036
0000b0 6f 9f 35 be 6e b7 f2 bd 08 47 a4 3d 90 c1 95 bd
       -0.177366 -0.11851393 0.08021361 -0.0731231
0000c0 af 95 ed bb b1 34 03 3e 19 9a fe 3d 9e d4 00 3d
       -0.0072505097 0.12813069 0.124317355 0.031452768
0000d0 de a7 c4 3d 53 41 32 be 35 06 13 be 7f 1c 3f 3d
       0.096023306 -0.17407732 -0.14357837 0.046658035
0000e0 0b d4 5f bc f0 b1 42 bc 63 79 6b bd 10 2b a2 3d
       -0.013661395 -0.011883244 -0.05748881 0.0791837
0000f0 4c bb e3 bc 5a e6 24 3e 52 e6 38 3e ba 60 4f be
       -0.027799271 0.16103497 0.1805661 -0.20251742
000100 a1 de aa bd 2e 33 44 be 33 96 01 3d 01 a4 6d 3d
       -0.08343244 -0.19160149 0.03163738 0.058017734
000110 4b 76 b8 3d bd 35 c6 3d 2e 5a b4 3d aa 61 ac bd
       0.090069376 0.096782185 0.08806263 -0.084170654
000120 cb db a8 3d 3d 7c 4a bc 62 76 81 bd 97 9c 4f 3d
       0.08245047 -0.012358722 -0.06321408 0.050686445
000130 19 4d 0c be 5b 73 f0 bd 64 e7 85 ba 31 18 2f bd
       -0.13701285 -0.11740752 -0.0010216055 -0.04274768
000140 e1 cc 50 3e 26 9b da 3d 4b a3 29 3d 23 74 eb bc
       0.20390655 0.106741235 0.041415494 -0.028741902
000150 a5 86 a2 bd 80 61 f8 3d 9a 37 8a 3c 4e 7b 39 be
       -0.07935838 0.12127972 0.016872216 -0.18113443
000160 c1 16 d8 bd c0 75 43 be 88 8b 4d 3d 1d 98 20 3e
       -0.10551215 -0.19087887 0.050181895 0.15683027
000170 88 d4 be bd 2d cc 3c 3d 50 0c 04 be 90 0c 08 3e
       -0.09317881 0.046093155 -0.12895322 0.13286042
000180 29 6a 2c 3e 2f d5 fe bd 40 fe 3c 3e f8 93 c3 bd
       0.16837372 -0.12443005 0.18456364 -0.09549707

hid3.weight f4 [200, 100]
000000 c0 b3 1c 3d 20 36 ea be 99 fc e3 3c b4 43 11 bd
       0.03825736 -0.4574442 0.027830409 -0.035464957
000010 9d 97 00 be 89 3b d8 bd 9f f7 f0 bb 8b e2 8f 3c
       -0.12557836 -0.105582304 -0.0073537375 0.017564079
000020 3d 94 2a bd 2d 4b e6 3b 3a 19 10 3d 6a 6a 81 3d
       -0.041645277 0.0070280046 0.035180308 0.06319125
000030 9b 88 fe bd ff e2 ee bd 18 9e c0 3b b6 2f 38 3d
       -0.12428399 -0.1166439 0.0058782212 0.044967376
000040 92 45 5f 3d df 8f ce 3d 62 ea 87 bd 9c 15 c8 be
       0.054509707 0.10086035 -0.06636502 -0.39078987
000050 2c 7d 2e be 15 fc 6d bd 34 e5 a7 bd 88 5c 4c 3d
       -0.17039937 -0.058101732 -0.08198014 0.049892932
000060 0f 54 db bd af 55 3a be 98 60 1c 3c 15 d7 08 bd
       -0.10709392 -0.18196748 0.009544514 -0.033408243
000070 14 47 95 3c bc cb 9c be 20 24 3a 3d b8 56 e9 3b
       0.01822237 -0.30624187 0.045444608 0.0071209334
000080 bb f0 a8 3d 25 ab 0d be dd fe 18 3d d0 c8 25 3e
       0.08249041 -0.13834818 0.03735243 0.16189885
000090 a7 70 df bd 04 47 c4 bc 40 e9 06 bc 8a 58 07 bc
       -0.109101586 -0.023959644 -0.008234322 -0.008260855
0000a0 bd 7a ed bc 13 6e 0e be d8 11 ac 3d 25 8b 0b be
       -0.02898919 -0.13909177 0.08401841 -0.13627298
0000b0 88 ba 1d be 5a 3b f0 bc 7a cd 6b bd 9c f1 7d 3d
       -0.15403187 -0.029325176 -0.057569005 0.061997995
0000c0 ab 94 f8 bb 76 ca 2a 3d a4 d5 d8 bd ef 38 92 3d
       -0.007586082 0.041696988 -0.10587624 0.071397655
0000d0 fa f6 b8 3d 7b b3 2d bd c6 58 a3 3c 60 52 06 bd
       0.09031482 -0.042407494 0.019939791 -0.032793403
0000e0 87 1e c6 3d ba 7a e7 3d f6 f2 b7 be 09 38 44 3d
       0.096737914 0.11302705 -0.35927552 0.047905
0000f0 c6 18 dc 3d 1e fd 23 bd 99 83 11 be 16 06 56 3d
       0.10746913 -0.040036313 -0.14210357 0.052251898
000100 09 c9 e3 3c 98 1a 03 3d 90 f2 15 3d 23 14 da bc
       0.027805822 0.032007784 0.03660828 -0.02662093
000110 ae aa b8 3c c8 5b 95 3c 5a e1 53 bb 8f 30 20 bd
       0.022542324 0.018232241 -0.0032330365 -0.03910881
000120 ea 11 41 be 51 4e af 3d e9 5d 39 be 7c ec 7c bc
       -0.1885449 0.085598595 -0.1810223 -0.015437242
000130 2a 13 95 bd 89 06 34 bd 79 6d 89 3d 2a 84 3e be
       -0.07279046 -0.043951545 0.067103334 -0.18605104
000140 f7 be ec bd 65 68 0c 3c dc b1 b0 bb 50 1a e9 bd
       -0.11559861 0.0085698115 -0.0053922962 -0.11381972
000150 b3 11 53 3d 41 c7 8c bd 79 d7 0f 3c 75 ca 80 3d
       0.05153055 -0.06873942 0.0087794 0.062886156
000160 00 5c 69 3d 03 53 a8 bd ef 3d a1 be bf 32 69 3e
       0.056972504 -0.08218958 -0.31492564 0.22773264
000170 b2 e8 a0 bd 7f 5a a8 3c 20 24 04 be b1 29 8d 3d
       -0.07856883 0.020550964 -0.12904406 0.06892718
000180 b1 42 44 3d 88 f0 09 bd 34 94 90 3c 9f 88 b2 3c
       0.047915164 -0.033676654 0.017648794 0.021793662
000190 4e d7 ab 3d 89 bf 33 bd 33 84 6b bd 9b b6 8b bd
       0.083906755 -0.043883834 -0.057499122 -0.068219386
0001a0 45 76 fa 3d a2 42 d4 3c 4d 78 30 3d a3 e0 d7 bd
       0.122295894 0.02591068 0.043083478 -0.10540893
0001b0 e7 5d e7 bc f0 d1 18 bd 67 71 8f 3d a3 55 d7 bd
       -0.028243018 -0.037309587 0.07004052 -0.10514381
0001c0 34 fe b8 3d c2 25 f9 bd b8 7c 44 3d 45 9b 81 bd
       0.090328604 -0.12165405 0.047970504 -0.063284434
0001d0 49 b9 c9 3d d8 e3 d1 3c 34 57 e1 bd 7c b5 21 bc
       0.098497935 0.02562134 -0.11002961 -0.009869929
0001e0 66 77 26 3d dc 15 99 3d a3 67 2a 3d a2 aa 71 3c
       0.04064121 0.074748725 0.041602742 0.014750155
0001f0 2b 8d 21 be b2 19 af 3d a1 22 8c 3d c1 49 04 bd
       -0.15776508 0.08549823 0.068425424 -0.0322969
000200 e8 b1 1e bd 2f 0a 2b 3c e4 67 f3 bd 88 c8 b4 3d
       -0.038743883 0.01043944 -0.1188505 0.08827311
000210 fb 72 88 3d ce b4 a7 bb 8c 7c 94 3c fc 41 0b bd
       0.06662556 -0.005117989 0.018125795 -0.033998474
000220 80 37 57 bd 0c 34 9e 3d ce 81 ce 3c ab 38 0d bd
       -0.052543163 0.07724771 0.02520838 -0.03447787
000230 5b 25 a7 3d 44 1e 7c 3d 69 3e 0c 3d c8 92 8c bd
       0.08161422 0.0615523 0.034239206 -0.06863934
000240 51 9e 52 bd 99 cd 88 3d 3b ad ec 3d 39 cc c4 3d
       -0.051420514 0.0667984 0.115564786 0.09609265
000250 31 81 30 bd 0d 8c 27 bd 40 ec ae bd b3 a0 2e 3d
       -0.043091957 -0.040905047 -0.08541155 0.042633723
000260 98 94 4b bc b3 b4 4e bd a6 6d 40 3c 19 d6 c7 bd
       -0.012425564 -0.050465297 0.011744892 -0.09757633
000270 e5 59 81 bc 9f b1 54 bc 6f c3 b2 bd 25 2c a7 bd
       -0.015789935 -0.012981801 -0.08728682 -0.08162717
000280 3f fd 32 3d 6c a9 f9 bc 30 07 6f bd 9b bb a6 3d
       0.043698546 -0.030476294 -0.058356464 0.08141252
000290 05 eb 25 bd 41 11 d6 3c db 25 52 3d c5 00 18 bd
       -0.040507335 0.026131274 0.051305633 -0.03711011
0002a0 ff cf 6f bd 69 99 58 3d f6 45 36 3d 02 2f 4c bd
       -0.05854797 0.05288068 0.044500314 -0.049849518
0002b0 ca 9d 04 3d b3 40 85 bd ee ad a0 bc 3a 06 b5 3c
       0.032377042 -0.06506481 -0.019614186 0.022097696
0002c0 fd b5 ba bd 99 96 60 3d 75 70 b8 bc 94 27 0c bd
       -0.09116743 0.05483112 -0.022514561 -0.034217432
0002d0 a8 bf 00 bd 8b 4a 33 3d 4d 61 66 bd 46 34 b3 bb
       -0.031432778 0.04377226 -0.056245137 -0.005468878
0002e0 63 b8 97 bd 5a 5a 81 bc 97 70 ab 3c b7 a7 67 bd
       -0.07408216 -0.015790153 0.02092771 -0.05655643
0002f0 c7 23 30 bd fc 55 9f bd 7d 1c e9 bd 61 87 ac 3d
       -0.04300287 -0.07780072 -0.11382387 0.08424259
000300 52 e5 4a be 5c a0 82 bd 29 37 4c 3d d0 b4 91 bd
       -0.19814041 -0.063782424 0.049857292 -0.07114565
000310 e1 8d ad bd e9 97 71 bd 1d b2 0d bd 5c 9a 3c 3d
       -0.08474327 -0.058982763 -0.03459369 0.046045646
000320 db ca 96 bd ae ac 2f bd 49 05 c8 bc 07 70 91 3d
       -0.0736291 -0.04288929 -0.024416583 0.07101446
000330 9d 35 b6 bd 15 93 b4 bc d0 8d 4d 3d 0a 89 7e bd
       -0.08896945 -0.02204279 0.05018407 -0.06214241
000340 17 8c 90 3d 00 0f 17 bd 52 c5 e3 bd d7 80 42 bd
       0.0705797 -0.03687954 -0.1112162 -0.047486152
000350 5d 68 b3 3c 2c be e0 3c 92 74 8e bc 9b 9c 60 bd
       0.02190035 0.027434431 -0.01738957 -0.05483685
000360 9c 63 bc bd 27 6a 38 bd 38 bd 0f 3c aa f8 6c bd
       -0.091986865 -0.04502311 0.008773141 -0.057854332
000370 c0 de 99 3d 60 14 a7 bd 68 32 c6 bc 49 6b 41 3c
       0.07513189 -0.08158183 -0.024193957 0.011805364
000380 e7 cf 3d bd f5 5a 5b bd 50 b5 ad bb a6 dc ae bc
       -0.04634085 -0.05355354 -0.005301155 -0.021345448
000390 c1 1a 9c bd 0d 98 94 3c 80 35 c5 bd 5c 69 61 bd
       -0.076222904 0.01813891 -0.09629345 -0.05503212
0003a0 58 9e 2d 3d 82 71 ef 3c 1a 25 0c 3d 36 d0 b3 bd
       0.042387336 0.02922893 0.03421507 -0.087799475
0003b0 79 a3 54 3c 7a 17 9c bd 70 5b 77 bc f7 c8 24 bc
       0.012978428 -0.07621665 -0.015097484 -0.010057679
0003c0 d2 9c 8c 3d b7 91 7e bd a7 c4 c2 bd fa f1 58 3d
       0.068658486 -0.062150683 -0.09510165 0.05296514
0003d0 fa 1f ad 3c f0 91 e2 3c 83 c9 1f bd 6a b1 af bd
       0.021133412 0.027657479 -0.039010536 -0.08578761
0003e0 07 00 45 3d 23 fc b6 3d 03 66 6c 3d 5a e5 b7 bd
       0.04809573 0.0893481 0.057714473 -0.08979292
0003f0 c0 40 d7 bd 4a fb 8b 3d 84 08 3c bd ff c1 60 bc
       -0.10510397 0.06835039 -0.04590656 -0.013718127

hid3.bias f4 [200]
000000 47 06 89 bd bb d0 d5 3c 85 82 09 bd 3e e3 1c 3d
       -0.066906504 0.026100507 -0.03357174 0.038302653
000010 6d f6 0f bd a6 90 29 bd d3 11 5f bd ef bf e7 bc
       -0.03514712 -0.041397713 -0.054460358 -0.028289763
000020 be 09 9f bc 47 b0 0b bc b4 ca d8 bd f5 11 4b bc
       -0.019413825 -0.0085259145 -0.105855376 -0.012394418
000030 05 8f f6 bc e8 aa 96 3d 7a e6 d6 bb d7 04 86 3d
       -0.030097494 0.073568165 -0.0065582367 0.06543892
000040 59 82 76 3d 45 64 3a bd a8 72 8f bd 11 89 1e 3d
       0.060182903 -0.04550578 -0.07004291 0.038704935
000050 25 97 eb 39 66 66 84 3c ee 0e 47 bd 9a fd 2c 3c
       0.00044935304 0.016162109 -0.048598222 0.01055851
000060 f5 48 8d 3c 78 c5 42 bd 30 cd 55 bd 13 a7 c3 3c
       0.017246703 -0.047551602 -0.052197635 0.023883378
000070 00 fa 62 3c e8 fb 30 3d 8a 33 59 3c 65 72 e5 3c
       0.01385355 0.043208987 0.013256917 0.02800865
000080 41 52 b1 bd bf 8f aa bd e0 57 b6 bd d3 88 05 bd
       -0.08658267 -0.08328199 -0.089034796 -0.03260119
000090 77 c7 64 bd 4d ae 8c 3d 0b 06 09 3d 21 35 99 3d
       -0.055854287 0.06869183 0.03345303 0.07480837
0000a0 07 cc 88 bc e3 3e e8 bb 30 e1 bf 3c 42 1c e6 3c
       -0.01669885 -0.007087575 0.023422807 0.028089646
0000b0 e4 4d 48 3c b1 e6 4b 3d 90 a1 31 bd 62 fc a7 3b
       0.012225602 0.04978055 -0.04336697 0.005126522
0000c0 c8 e3 9c 3d c4 59 22 bd 9b af d4 3c 7b 0c f7 3c
       0.07660633 -0.03963639 0.025962641 0.030157318
0000d0 e3 af b3 3c 5f 3f 25 bc 5f c9 8c 3d d9 ec 23 bc
       0.021934455 -0.01008591 0.06874346 -0.010005199
0000e0 13 be 0a 3c 2f bf 51 bd 23 0a 90 ba 6f 69 95 3c
       0.008468169 -0.051207718 -0.0010989349 0.018238751
0000f0 ed ac 04 bd b2 f2 3b 3c af d3 fe bd 1c 30 93 bd
       -0.032391477 0.011471437 -0.12442719 -0.071869105
000100 bf 22 24 3d 45 49 b3 bd 0b f7 6e 3c be 80 7a 3d
       0.0400722 -0.087542094 0.014585267 0.061157934
000110 0e ea c4 bd 88 1c c2 bc 2d c6 26 3d ce dd e7 bc
       -0.09614955 -0.023695245 0.04071634 -0.028304007
000120 4d 2a 55 3d b2 74 af bc 2a 88 b9 bd 59 21 63 bd
       0.052042294 -0.02141795 -0.09059174 -0.055451725
000130 b1 6f d6 3d af 23 0e 3d 74 88 a2 bd 72 1d bb bc
       0.10470522 0.034702 -0.079361826 -0.022841189
000140 bb 5d 8f bd 71 8d ee 3d 53 ca aa bc 54 1a a8 39
       -0.070002995 0.116480716 -0.020848429 0.00032063073
000150 a9 76 a8 bd 96 59 ad 3d 5d 67 64 bc 0d 7f 5c bd
       -0.08225758 0.08464353 -0.013940659 -0.053832103
000160 df 74 cc 3c 6d 8c 7c bd e0 22 1e bd 6e 8c 0f 3d
       0.024958072 -0.061657358 -0.03860748 0.035046034
000170 5e 77 db bc c4 a2 1b bd 4d 68 b4 3d 99 e8 98 3d
       -0.026790317 -0.037997022 0.08808956 0.074662395
000180 89 e9 c5 3d 14 dd db bc 56 91 28 3d 8a cd 54 39
       0.09663684 -0.026838817 0.04115423 0.00020294465
000190 a8 75 f7 3c 4b cc 4d 3d 3d 07 85 bd 5a c6 af 3d
       0.03020747 0.050243657 -0.06495521 0.085827544
0001a0 a3 df 5e bd 03 93 b5 bb 58 b1 66 3d 33 21 bd bc
       -0.054412495 -0.005541207 0.056321472 -0.02308712
0001b0 6f 38 a8 3b 7b f9 ae 3d e9 90 c4 bd 99 c6 af bc
       0.0051336805 0.085436784 -0.09597952 -0.021457003
0001c0 70 76 b1 bd 33 de 63 bd 05 2c ba bc 21 68 aa 3b
       -0.08665168 -0.055631828 -0.022726068 0.0052004014
0001d0 3e 3d 6d 3d fa da 85 3d 9d e0 9f bd b2 ba 8e bd
       0.057919733 0.06535907 -0.078065135 -0.06969203
0001e0 91 f2 71 3c 7a ce 8e bd 13 ee 21 bb aa ad 5e 3d
       0.014767305 -0.06972976 -0.0024708554 0.054364838
0001f0 fe 07 c6 3d b7 9f 03 bd 13 fb 81 38 64 60 11 3d
       0.09669493 -0.032134738 6.1979656e-05 0.035492316
000200 8e 97 bb 3d 4a 93 31 bd 5e 48 a8 bd 4a 64 80 bc
       0.09159766 -0.043353356 -0.08216928 -0.015672822
000210 8a d1 79 bd b0 ea 9f 3d c2 55 b9 bd 39 5e 27 bd
       -0.060990848 0.07808435 -0.0904956 -0.040861342
000220 f6 53 ec bd 57 57 df bc e8 bf 8e bc c6 8d 8b bc
       -0.11539452 -0.027263327 -0.017425492 -0.017035376
000230 d8 91 bf 3d 44 f7 45 3c b2 80 35 bd 6c 9e 3c 3c
       0.09353989 0.0120828785 -0.044312187 0.01151238
000240 0d f7 ab 3d 15 7a 08 bd e1 68 6d bc 95 d2 7c bd
       0.083967306 -0.03331955 -0.014490337 -0.061724264
000250 4f 99 06 3d ce 46 5d bd 24 f1 ba bc 8b 3b 98 bd
       0.03286105 -0.054022603 -0.022820063 -0.07433232
000260 bd a9 ac 3d a0 32 c6 3d 99 cc 53 bd 74 cf 82 bd
       0.084308125 0.09677625 -0.05170879 -0.06387225
000270 2e 01 ae 3d 6b a0 28 bd 4f c4 84 3d 0c 96 8f 3c
       0.08496319 -0.04116861 0.064827554 0.017527603
000280 41 6a a5 3c 95 21 84 bd be f7 d8 3d 28 a8 45 bd
       0.020192267 -0.06451718 0.10594128 -0.04825607
000290 37 14 a5 bd a7 d8 90 bd 03 bb 29 bd c0 79 b5 3d
       -0.08060496 -0.07072573 -0.041438114 0.088611126
0002a0 1e bd 1c 3d fe 46 83 3d 46 79 a0 bc 82 87 0d bd
       0.038266294 0.06410025 -0.019589078 -0.03455306
0002b0 8f 49 fd bb 9d 18 ec bd 49 06 e9 3c 6a 0a b1 bd
       -0.007729716 -0.11528132 0.02844538 -0.086445644
0002c0 25 61 84 bc d1 33 00 bd b2 94 42 3d 86 24 e2 3c
       -0.016159603 -0.031299416 0.04750509 0.027605306
0002d0 b0 b3 8b 3d 1c 7a 52 3c 6c 86 0d 3d 65 1b a3 3b
       0.06821382 0.012846496 0.034552023 0.004977631
0002e0 86 f4 1a 3d 24 e9 57 bd 64 05 aa bc 6d 19 f5 3b
       0.037830852 -0.052712575 -0.020754524 0.0074798376
0002f0 84 d7 1c 3d 83 13 0f bd ab 92 eb bc f1 97 a5 3d
       0.03829147 -0.034930717 -0.02875646 0.08085621
000300 cc 9d 4e 3c 00 d6 bc 3d 0c 00 cf bd 44 07 9c bd
       0.012610864 0.09220505 -0.10107431 -0.07618573
000310 f6 24 82 bd e9 83 57 bc 3c d0 96 3c 22 c8 ff 3c
       -0.06354706 -0.013154008 0.01840984 0.03122336

hid4.weight f4 [100, 200]
000000 d4 95 14 3e 79 e9 db bd e4 97 e7 bc 0e 9e ef 3d
       0.1451028 -0.10737891 -0.02827067 0.117000684
000010 6f c0 3d bd 92 25 f7 bd 18 44 22 bd 8a bc cd 3d
       -0.046326097 -0.12067713 -0.03961572 0.100457266
000020 47 88 de bd 36 ed fd 3a d8 5b 73 bd 78 ca 1f bc
       -0.108658366 0.0019373063 -0.05941376 -0.009752862
000030 26 8b 16 3d ca d8 a3 3c 7f d6 02 3d fa 53 bb 3c
       0.036753796 0.020000834 0.03194284 0.022867192
000040 9e 3e 08 bd d0 5f 47 3d 5a 41 70 3d b6 5e ae be
       -0.03326284 0.04867536 0.058656074 -0.34056634
000050 a5 9a 96 bd 2b 2d 5b bd 85 76 3a be c6 e6 57 bd
       -0.07353715 -0.053509872 -0.18209274 -0.052710317
000060 9e f7 0c 3d 92 ae 1b 3d f4 23 f0 3b 3f 12 97 bd
       0.034415834 0.03800828 0.0073285047 -0.07376527
000070 99 a1 16 3d c8 a4 76 bd a6 08 47 bd e9 9d ba bd
       0.036775205 -0.06021574 -0.048592232 -0.0911215
000080 62 57 27 bd 84 2b 1f 3d 56 68 08 bd 41 47 3f bd
       -0.04085482 0.03885986 -0.033302628 -0.046698812
000090 52 b1 72 3e a0 98 db 3d 58 7d 5a bd 4a 09 f2 3b
       0.23700455 0.1072247 -0.053342193 0.0073863612
0000a0 9f f7 05 3d 1f 1a ba bc bc 6d af 3d d7 70 a3 3c
       0.032706853 -0.022717534 0.08565852 0.019951267
0000b0 8b 74 d0 bc af c8 df 3c 23 df 8e 3d e9 9f 75 bd
       -0.025446197 0.027317373 0.06976154 -0.059966955
0000c0 eb a2 05 3c 15 05 b9 3d 11 b5 3a 3d 71 10 f1 bd
       0.008156518 0.090341724 0.045582835 -0.11770714
0000d0 e6 76 6a 3d 4d 1f 06 be 5a 3b 80 3d b6 b2 ec 3d
       0.057242297 -0.13097878 0.062613204 0.11557524
0000e0 95 6a 4d bd 7e 50 09 3e 7e 84 ae 3d 41 3b 78 bd
       -0.050150473 0.13409612 0.08521365 -0.060603384
0000f0 8a 17 b4 3d cc 5c 44 bd b5 8f d2 bc 93 6b 96 bd
       0.08793552 -0.04794006 -0.02570329 -0.07344737
000100 49 c5 3a bd 3b 17 fd bc 23 64 c3 3c 9b 05 80 bc
       -0.045598302 -0.030894866 0.02385146 -0.015627673
000110 2b 85 45 3d 9b 82 cb be 8a b0 8a 3d 02 b0 27 bd
       0.048222702 -0.39748082 0.067719534 -0.04093934
000120 1b fd f5 3c 77 d2 01 3d 62 fb 1a bd bc 05 a0 3d
       0.030027917 0.031694856 -0.037837394 0.07813594
000130 99 4b af bd 8f bc da bd 5d 0c a4 bd e4 82 a4 bd
       -0.08559341 -0.10680496 -0.080101706 -0.08032778
000140 20 20 b3 3d 99 89 e5 3d 40 d1 17 bf fa 3a a9 bd
       0.08746362 0.11207885 -0.59303665 -0.08263202
000150 27 90 46 3d e5 62 76 bc be 27 08 be d1 35 80 ba
       0.04847732 -0.015038227 -0.1329641 -0.0009781664
000160 bc 68 bf bb 6f bd e2 bd 43 c0 19 3b fd b3 7b bb
       -0.0058413427 -0.11071288 0.0023460544 -0.0038406842
000170 0e a8 22 be 7d 20 a0 be ee de d0 3b 7f 06 6e bd
       -0.1588442 -0.31274787 0.0063742315 -0.058111664
000180 d5 90 fc 3b 04 03 3d 3c 2c 96 6c bd 50 67 95 3a
       0.007707695 0.0115363635 -0.057760403 0.0011398587
000190 17 13 f7 bc 10 a0 db bc 73 a6 1a ba b3 ec ee bd
       -0.03016047 -0.026809722 -0.00058994367 -0.116662405
0001a0 2d 07 3b 3c a0 34 a1 bc 51 8e e8 3c b4 32 d2 bc
       0.011415285 -0.019678414 0.028388174 -0.025658943
0001b0 7d 98 69 3d 14 7b 5d bd 67 d1 a1 3d 38 e2 a2 3b
       0.05703019 -0.054072455 0.079012685 0.004970815
0001c0 42 14 03 3c 63 99 d9 3c 3d 47 b2 3d 25 45 57 bd
       0.008000435 0.026562398 0.08704994 -0.052556176
0001d0 04 58 02 bd 53 a4 b4 3d 11 b5 e6 bd ec 4e e6 3c
       -0.03182222 0.08820405 -0.112650044 0.028113805
0001e0 38 73 e9 ba 4b 7a d4 bd dd 20 e9 3c db 2a 5d be
       -0.0017810827 -0.10374888 0.028458053 -0.2159838
0001f0 56 0f 15 bd f4 60 1c bd 95 10 80 3d a2 df 69 3d
       -0.03639158 -0.0381784 0.06253163 0.05709804
000200 f2 9d 9b 3c 22 ae 81 bc cd cb 37 ba 93 00 64 ba
       0.018996213 -0.015830103 -0.00070112647 -0.00086975953
000210 a9 f7 a8 3d 26 0c 36 bd 68 a9 04 be 4c 6f 0f bd
       0.082503624 -0.04444518 -0.12955248 -0.03501825
000220 23 38 e3 3d 25 c5 18 3e 43 a1 6a 3c d7 3c 36 3d
       0.110946916 0.14918955 0.014320674 0.044491615
000230 61 41 78 bd 6a 13 01 bd 56 ef a4 3c 9c 96 76 bd
       -0.060609225 -0.031512655 0.020133656 -0.060202226
000240 42 c5 6b ba 06 9b c8 bc 4a 38 32 bc fd 92 85 3d
       -0.0008993932 -0.024487983 -0.010877678 0.065221764
000250 fa f9 05 bd d5 66 be 3d 5e 6a 90 3c 27 c7 c0 bd
       -0.0327091 0.092969574 0.017628845 -0.09412985
000260 ee 7c 41 bd e7 43 5e bd b5 e8 11 be 91 a1 41 bc
       -0.047238283 -0.054263975 -0.14248927 -0.011818306
000270 9e 4f ab 3d 90 01 95 3c 7f a3 11 3d e3 4f d9 bd
       0.08364795 0.018189222 0.035556313 -0.1061094
000280 b6 6f be 3d c5 da 70 bd 4c fc 83 3d 23 a6 43 bd
       0.09298651 -0.058802385 0.06444606 -0.047765862
000290 4d 63 32 bc ec 52 5a bd 76 55 b8 3d 67 2c 2b 3d
       -0.010887933 -0.053301737 0.090006754 0.041790392
0002a0 a8 9a 11 3d 65 c2 2c bd 19 2c 6c bd 04 bc 06 3c
       0.035547882 -0.042177577 -0.057659242 0.008223537
0002b0 03 c4 99 3d 5a 37 8e bc 49 8a 0e 3d 2a 64 4f 3d
       0.075080894 -0.017360378 0.034799848 0.050632633
0002c0 03 79 fb bd 25 94 e0 3d a9 59 24 bd ec 7d a5 3d
       -0.122789405 0.10965756 -0.04012457 0.08080658
0002d0 92 f4 4e bb 4b cd 26 bd c1 9a bf 3c 93 53 51 be
       -0.003157888 -0.040723126 0.023389222 -0.20442037
0002e0 62 8a f6 bc cb 87 79 3d 22 e8 93 3c 02 02 e9 bd
       -0.030095283 0.060920518 0.018055025 -0.11377336
0002f0 4e 10 19 bb 56 79 01 3c 50 48 55 3d 52 59 e2 3c
       -0.0023355666 0.007902464 0.052070916 0.027630482
000300 f7 ed 33 bd df 53 30 3d 2e 00 16 3d 26 cd e0 be
       -0.043928113 0.043048736 0.036621265 -0.43906516
000310 50 dc ac 3d 86 1c 64 3c 3e bd ce bd 29 4b de bc
       0.08440459 0.013922816 -0.10094689 -0.027135449
000320 b3 ae b2 3d b7 09 6f 3d b3 69 2e 3d 77 39 33 3d
       0.087247275 0.058358874 0.04258127 0.043755975
000330 53 d3 b8 3c b3 6a a5 3d b7 44 0a bd 1d 6c 3b be
       0.022561705 0.08076992 -0.033756938 -0.1830296
000340 2a dc 7f 3c ad 6a df 3d 92 a5 48 bd eb ea 87 bd
       0.015616456 0.10909019 -0.048986025 -0.06636604
000350 76 40 0c bb e9 2a 16 3e 9c 50 76 bc 32 ca 87 bd
       -0.0021400726 0.14664806 -0.015033867 -0.066303626
000360 b6 ba c8 3d f6 63 97 bd 12 3b eb bc c0 bf a6 bb
       0.09801237 -0.07392113 -0.02871469 -0.0050887764
000370 6b 77 0d bd f5 37 84 3c 37 79 1f bc 88 a6 d1 bb
       -0.034537714 0.016139964 -0.00973349 -0.006398026
000380 38 f1 07 3d df 85 94 3b f8 76 4a bd e4 64 72 bc
       0.03318903 0.0045325602 -0.049429864 -0.014794562
000390 f2 c6 d7 bc 85 83 ea 3b a2 81 46 3d 87 40 94 3c
       -0.026339982 0.0071567916 0.04846347 0.018097175
0003a0 39 d3 19 3d e4 2c 11 bd 3a 00 dd bd e1 5f e9 3c
       0.037554953 -0.0354432 -0.10791059 0.028488101
0003b0 ac e1 44 3d 09 af 22 bc bc 41 d8 bc d0 39 44 3c
       0.04806678 -0.009929427 -0.026398532 0.011976674
0003c0 b9 72 e1 bc 54 da 54 3d ae ec 3c bd b9 34 f0 bd
       -0.027520524 0.051966026 -0.046124153 -0.11728806
0003d0 83 b7 d7 bc 33 48 80 3d 06 78 d1 bd be 44 2d 3d
       -0.026332622 0.06263771 -0.10227971 0.042301886
0003e0 7e 80 5a 3d c5 fc 06 be 0d 77 4d 3c d0 a1 8b 3d
       0.053345196 -0.13182361 0.012540591 0.06817973
0003f0 d1 c3 3c 3d bd 44 a5 3d ab fb 42 bc 15 d8 54 bd
       0.046085183 0.080697514 -0.011900823 -0.051963884

hid4.bias f4 [100]
000000 a6 ad 1b bc a7 17 56 3d 9d cd 19 3d 68 3c fe bc
       -0.00950185 0.05226865 0.037549604 -0.031034663
000010 41 c1 fe 3c 1b 6a 0c bd ab 37 aa bc a8 44 13 3d
       0.03109801 -0.034280878 -0.020778498 0.035954148
000020 f7 aa 0b 3d 06 dc a2 3c a9 10 67 bd c0 ef e7 bc
       0.03409859 0.019880306 -0.056412373 -0.028312564
000030 a4 63 a6 3d df c4 73 3c 4b e2 cf 3c 8d 67 87 3d
       0.08124474 0.014878481 0.02537646 0.066115476
000040 0e 72 64 bd e8 c7 4b 3c ec b8 11 bb 0a 0d 17 bc
       -0.055772834 0.012437798 -0.0022235466 -0.009219417
000050 d2 c0 34 bd 5b 58 8c 3d ac 1d 92 3b f4 60 39 3d
       -0.0441292 0.0685279 0.0044591036 0.045258477
000060 fd 2b 0e 3b c0 ac 4f bd 67 46 7d 3c 4d 11 fc bb
       0.00216937 -0.050701857 0.01545868 -0.007692492
000070 31 0e 45 3d 6f 07 5f bd 21 97 83 3d 19 4e 0a 3b
       0.048109237 -0.05445045 0.0642531 0.0021103679
000080 aa e5 69 bd de f7 05 3d 3b 32 33 3d 66 7a 7c 3d
       -0.05710379 0.032707088 0.043749075 0.061640166
000090 7b a2 7d 3d 10 4c 4a 3d 37 ad 6e bd 38 0b 19 3c
       0.06192253 0.049388945 -0.05827066 0.009341054
0000a0 a8 ed a2 bc f6 32 14 3d 7b 8e 2c bd b6 1b fc 3d
       -0.019888714 0.036181413 -0.042128067 0.12309973
0000b0 d0 e7 8f 3d c0 e9 01 3c bf 84 5c 3d 8e dc b8 3c
       0.070266366 0.0079292655 0.053837534 0.022566106
0000c0 8b ce 18 3d 2d 4c 55 3d ef e2 67 bc 43 a4 7f bd
       0.03730635 0.0520746 -0.014153226 -0.06241251
0000d0 89 b0 ab 3d d5 55 65 bd 95 91 9b 3c 98 04 5a 3d
       0.08383281 -0.05599006 0.018990317 0.053227037
0000e0 9e a7 4b 3e 3b f2 43 bd 00 6f 2d 3c 46 7e 8e 3d
       0.1988816 -0.04783843 0.0105855465 0.069576785
0000f0 ea 0a f4 3d 09 32 ad 3d 37 f4 ec 3d 58 08 de 3b
       0.11916144 0.08456809 0.11570018 0.006775897
000100 4c 83 32 bc aa c0 3c 3d e0 18 3a bd 95 a9 85 bc
       -0.010895561 0.046082176 -0.04543388 -0.016316215
000110 d3 99 9e bd de 3b 2c 3c 51 93 78 3d 29 bd 0d bb
       -0.077441834 0.01051232 0.060687367 -0.002162764
000120 9d 92 03 bc ec 74 6e 3d ff 6b 94 bc 6e 92 a7 3c
       -0.008030561 0.058216974 -0.018117903 0.020455565
000130 13 51 90 bc 2b ba 2f 3d 44 6f 0f 3d e2 06 a6 bc
       -0.017616784 0.042902153 0.03501822 -0.020266954
000140 b8 8d 95 3d dd 7a 9f 3d 61 d7 25 bd c8 46 54 bd
       0.07302421 0.07787106 -0.040488604 -0.051825315
000150 df 53 da bc f7 34 62 3d bb 62 d9 bc 81 04 27 3d
       -0.026651321 0.055226292 -0.026536336 0.04077578
000160 6d 71 93 3d 91 11 45 3c 91 25 0c 3d 84 d8 99 ba
       0.071993686 0.012028114 0.034215514 -0.00117375
000170 7b 1f 37 bd 2e 4c 89 bd 6f 77 71 bd 2e 45 ab bc
       -0.044707756 -0.06703983 -0.05895179 -0.02090701
000180 3e 7e eb 3c 74 3c 3a 3d 9a 96 01 3d 7d 6d f0 3a
       0.02874672 0.04546781 0.031637765 0.0018343177

batchnorm1.weight f4 [100]
000000 eb f9 82 3f 05 4e 85 3f df 27 8f 3f cb 35 89 3f
       1.0232519 1.0414435 1.1184043 1.0719541
000010 d3 bb 83 3f 4e a1 7c 3f ef 02 80 3f 05 e7 85 3f
       1.0291694 0.9868363 1.0000895 1.0461127
000020 cc 61 8c 3f 84 82 87 3f d5 ad 7e 3f 66 56 8a 3f
       1.0967345 1.0586705 0.99483997 1.0807617
000030 ff c6 81 3f 68 8d 8a 3f 8d 6a 88 3f 6c 87 8a 3f
       1.0138854 1.0824404 1.0657517 1.0822577
000040 b1 3d 87 3f af fb 82 3f 4c c1 84 3f 4b a1 7b 3f
       1.0565702 1.0233058 1.037149 0.9829299
000050 b1 eb 85 3f 9c 41 83 3f 9b ff 8e 3f b3 44 85 3f
       1.0462552 1.0254397 1.1171755 1.041159
000060 df d1 84 3f c9 b2 7c 3f 16 d1 88 3f 9b 15 7e 3f
       1.0376548 0.98710304 1.0688808 0.9925172
000070 c5 3e 83 3f 6c dd 83 3f d7 94 80 3f eb 0d 85 3f
       1.0253531 1.0301948 1.0045422 1.0394872
000080 00 00 80 3f b3 02 85 3f 18 c7 8a 3f 39 7f 93 3f
       1.0 1.0391449 1.0842009 1.15232
000090 3e 61 8a 3f dd e2 90 3f aa 28 7e 3f 4e 7d 89 3f
       1.0810926 1.1319233 0.992808 1.0741365
0000a0 49 db 8a 3f fc f8 86 3f 71 35 8e 3f 0c 86 8f 3f
       1.084817 1.0544734 1.1110059 1.1212783
0000b0 9d d5 84 3f 5f 45 89 3f 83 1d 88 3f 1a 60 87 3f
       1.037769 1.0724295 1.0634006 1.0576203
0000c0 38 60 89 3f 5d 17 8b 3f 8f ae 85 3f db 46 7f 3f
       1.0732489 1.0866505 1.0443896 0.9971749
0000d0 3e 13 84 3f 00 00 80 3f 3f 1d 85 3f 17 3a 8f 3f
       1.0318372 1.0 1.039955 1.1189603
0000e0 bc 67 80 3f e1 21 84 3f 93 b8 86 3f b5 d2 82 3f
       1.0031657 1.0322839 1.0525078 1.0220553
0000f0 cf 6c 88 3f e8 82 84 3f 6e d4 7d 3f 99 9a 8b 3f
       1.0658206 1.035245 0.99152267 1.0906554
000100 97 16 86 3f c9 64 8d 3f d2 84 84 3f d8 c3 82 3f
       1.0475644 1.1046382 1.0353034 1.0216017
000110 32 4d 7c 3f ec bd 82 3f 53 f3 86 3f cc e6 91 3f
       0.9855529 1.021421 1.0543007 1.1398559
000120 34 c1 8b 3f 21 29 8d 3f a1 c9 89 3f f5 79 84 3f
       1.0918336 1.1028177 1.0764657 1.0349718
000130 a7 ba 8b 3f 14 3a 8b 3f 0c ed 85 3f 23 fc 8b 3f
       1.0916337 1.0877099 1.0462966 1.0936321
000140 28 3b 7b 3f 5e 91 82 3f 9c 4f 89 3f 2b 2e 7e 3f
       0.9813714 1.0200613 1.072742 0.99289197
000150 1a 14 8b 3f 10 2b 8b 3f 56 e4 88 3f 0c 34 84 3f
       1.086551 1.0872517 1.0694683 1.0328383
000160 8a f2 89 3f 74 15 85 3f 8c d8 86 3f 7b 03 83 3f
       1.0777142 1.0397172 1.0534835 1.0235437
000170 e9 14 85 3f 83 70 78 3f 0c e4 7c 3f ab 85 84 3f
       1.0397006 0.9704668 0.9878547 1.0353292
000180 85 0c 86 3f 40 e6 8e 3f 22 23 86 3f 30 2a 83 3f
       1.0472571 1.1164017 1.0479472 1.024725

batchnorm1.bias f4 [100]
000000 d6 c6 03 be 9e 6c d5 3d a6 38 ce 3a f6 a9 2e 3d
       -0.12868819 0.10421108 0.0015733435 0.042642556
000010 9e 27 04 be 3e ae 17 3e 82 ba ab 3d ef f6 ec 3c
       -0.12905738 0.14812562 0.08385183 0.02892634
000020 1c 29 b5 3d 6c a8 db bd 15 72 19 be 04 9c e8 bd
       0.088457316 -0.10725483 -0.14984925 -0.113578826
000030 a0 c9 e7 bd bc 93 c9 bd 1c 86 fb bd 66 36 a9 bd
       -0.11317754 -0.09842631 -0.12281439 -0.08262329
000040 5b 68 fd bd 38 0c 25 3e 1f fd fc bd 0c 64 1f be
       -0.1237342 0.16117942 -0.123529665 -0.15565509
000050 a8 36 e5 bd 51 56 f4 3d c1 7b 88 bc 0d ea de bd
       -0.111920655 0.11930526 -0.016660573 -0.108844854
000060 9a b9 f7 bd 52 e3 15 be f2 15 47 bd aa 7b 19 3e
       -0.120959476 -0.14637497 -0.048604913 0.1498858
000070 69 c6 b3 3d 71 40 00 be 79 38 df bd c6 e8 01 be
       0.08778078 -0.12524582 -0.10899443 -0.12686452
000080 95 b2 13 be dc a9 b5 3d c1 a9 b4 bd e6 23 e8 bd
       -0.14423592 0.08870289 -0.088214405 -0.11334972
000090 f9 08 10 3d da 8b ab bd a6 1b 17 3e 51 28 6d 3c
       0.035164807 -0.08376284 0.14756641 0.014474944
0000a0 01 81 0d be aa ae d7 bd ba 4a e9 bd 5f cd 34 3d
       -0.13818742 -0.105313614 -0.11391206 0.04414117
0000b0 78 a6 08 3e b2 f4 db bd 88 e0 14 3d eb b6 f1 bd
       0.13344753 -0.10740031 0.036346942 -0.11802467
0000c0 64 20 02 bc a2 8a b2 bd 5f d6 7d 3d 1d 00 11 be
       -0.007942293 -0.08717848 0.06197202 -0.141602
0000d0 fe 74 9d bd 7e bb 1b be bf f1 9e 3c a7 de ec bd
       -0.0768833 -0.15208241 0.019402383 -0.11565905
0000e0 cf 91 10 3e f8 71 0a be d8 6b 01 3d a3 a9 bc 3d
       0.14118122 -0.13520038 0.03159699 0.09212043
0000f0 46 be b8 3d fb ff f2 3c 39 c6 0a 3e db b5 ef bd
       0.09020667 0.029663077 0.13552178 -0.11704608
000100 f8 d1 e6 bd 79 ab 89 3b 48 f5 fa 3d 47 1b 93 3d
       -0.11270517 0.0042013493 0.12253815 0.07182937
000110 2c e8 1c 3e 30 00 08 be 7c 4f c0 3d 36 9b f5 bd
       0.15322942 -0.13281322 0.093901604 -0.11992495
000120 be 0c 05 be 2c 17 e8 bd cf 0f d2 bd fc 98 fc bd
       -0.12993142 -0.11332545 -0.102569215 -0.12333867
000130 26 1c 08 be 9b 60 ef 3d c6 01 f3 bd c7 c7 e0 bd
       -0.13291988 0.11688348 -0.11865573 -0.109756045
000140 fc 35 06 3e 50 79 bb 3d 4f 2f d4 bd 35 90 1f 3e
       0.13106531 0.09153998 -0.10360586 0.15582354
000150 92 f0 aa bd ec 4e 8a 3c 8e 3d fb bd 40 87 ec bd
       -0.083466664 0.016883336 -0.122676 -0.115492344
000160 59 f2 cc bd 3f d9 e5 bd 4e 28 c5 bd 8f ef 0b be
       -0.10007162 -0.11223077 -0.09626828 -0.13665603
000170 9d 70 ea bd 45 b5 14 3e 5c f0 18 3e 42 b5 0a be
       -0.114472605 0.14522274 0.1493544 -0.13545707
000180 b1 6b a8 bd 0a 81 e5 3d 87 4d 95 3d 3c 31 14 be
       -0.082236655 0.11206253 0.07290178 -0.14471906

batchnorm1.running_mean f4 [100]
000000 ef fa eb 3b d0 de c0 3d 40 1a 79 3d 03 74 12 3c
       0.0072015445 0.09417498 0.06081605 0.008938792
000010 b3 27 08 3e 04 00 00 00 1f 75 64 3c e1 36 f6 3c
       0.13296394 6e-45 0.0139439395 0.030055465
000020 42 e9 7c 3d a6 c3 f9 3b 04 00 00 00 5d 93 6f 3c
       0.06174589 0.0076222 6e-45 0.0146225365
000030 c5 83 d2 3d a1 28 8f 3b 14 f6 07 3c d7 6a 43 3c
       0.10279039 0.004368857 0.008298416 0.011927328
000040 3a a6 bd 3b cc 0f 77 3c df 91 02 3c 04 00 00 00
       0.005787638 0.01507945 0.007969349 6e-45
000050 4f 33 1a 3c 95 e0 5e 3d d8 71 58 3c 12 08 0f 3e
       0.009411647 0.054413397 0.013210736 0.13967922
000060 40 13 82 3c 79 e5 e0 3b af d2 46 3b 04 00 00 00
       0.01587832 0.006863293 0.003033798 6e-45
000070 33 8b 90 3d 63 7d 13 3c dd 54 f1 3d b3 9f f9 3c
       0.070578 0.0090020625 0.117837645 0.030471658
000080 00 00 00 00 b4 f1 05 3d fe 7e b0 3b 20 2a 46 3c
       0.0 0.03270121 0.0053862324 0.012095004
000090 58 26 98 3d 60 4b 00 3c 04 00 00 00 ed 98 94 3c
       0.074291885 0.007830471 6e-45 0.018139327
0000a0 3f d7 82 3b 55 4b 68 3c 63 d5 3f 3a 50 4f ff 3d
       0.0039929445 0.014178117 0.0007317869 0.124662995
0000b0 59 77 a2 3d 76 a9 0a 3c 5f 40 5d 3d 1c 1a 10 3c
       0.0793292 0.008463254 0.054016467 0.008795287
0000c0 dc f8 26 3d 9c 52 a7 3d ea d7 d4 3c 04 00 00 00
       0.040764675 0.08170053 0.025981862 6e-45
0000d0 88 de b1 3d 00 00 00 00 1d 69 47 3d 13 00 17 3c
       0.086850226 0.0 0.04868423 0.009216326
0000e0 2a 40 66 3e ba 6e 87 3c c1 9a e5 3b a2 2d e4 3d
       0.22485414 0.01653229 0.0070069735 0.11141516
0000f0 a0 a6 07 3e 09 ad b7 3d 22 3e 09 3e e5 28 8b 3c
       0.13247156 0.08968551 0.13402608 0.016987273
000100 ea 1c 28 3c 90 02 a6 3c b3 88 fa 3a 3c b8 3c 3d
       0.0102608 0.020264894 0.0019114226 0.046074137
000110 04 00 00 00 1a bd f7 3c c6 44 dd 3d 6c 58 65 3c
       6e-45 0.030241538 0.10804133 0.013998132
000120 57 85 d9 3b 66 c7 0e 3d cb d0 8a 3c 51 6d 09 3c
       0.00663821 0.03485813 0.016945263 0.0083878795
000130 65 0b a2 3b 33 fb 78 3d bf 9e 85 3c 88 93 cb 3c
       0.004945206 0.060786437 0.016311048 0.024850622
000140 31 07 03 3e 32 61 b6 3d 3a 03 00 3c 04 00 00 00
       0.12795712 0.08905257 0.007813269 6e-45
000150 e0 da 95 3b 0a 48 c1 3c 43 8d 7a 3b 2c a5 1a 3c
       0.004573211 0.023593921 0.0038231171 0.009438794
000160 40 50 12 3d 51 bf 4e 3c 51 d1 8e 3c 62 88 dd 3b
       0.035721064 0.012618856 0.017433794 0.006760643
000170 ba fa 32 3c 04 00 00 00 04 00 00 00 d7 e8 ed 3b
       0.010924036 6e-45 6e-45 0.0072604227
000180 74 89 94 3b 47 03 a1 3a 95 ec 20 3d 7b 5c 7f 3c
       0.0045329873 0.0012284302 0.039288122 0.015586014
