checkpoint/ann_checkpoint.pt (torch, 142644 bytes, 44 tensors)

hid1.weight f4 [30, 15]
000000 53 86 30 be ea e0 a5 ba 43 65 bc be ba b9 35 bd
       -0.1723874 -0.0012655531 -0.36796007 -0.044366576
000010 bb 4c 29 be 09 14 8b 3d c5 81 db bd c8 1c 54 be
       -0.16533177 0.06790931 -0.10718111 -0.20714104
000020 ab 06 35 bd 9c 8a 94 bd 5b dd 57 be 41 8a 9f bc
       -0.044195812 -0.07253 -0.21080534 -0.019475104
000030 6d 73 4b bc 6f af e9 3a 58 7c 51 bd 49 60 9a 3e
       -0.012417656 0.0017828773 -0.051143974 0.30151585
000040 67 bf 35 3e 7c df cc 3b b9 93 ea 3d 1c 28 9b 3e
       0.17748795 0.0062522274 0.11453957 0.3030404
000050 84 62 35 be e9 d4 50 bd 14 c4 da bd a6 3c 0d 3e
       -0.17713362 -0.050984297 -0.1068193 0.13792667
000060 f8 10 c1 bd fb f2 e9 bd 79 e7 00 bc 5c 8b b0 bc
       -0.09427065 -0.11423298 -0.007867687 -0.021550827
000070 57 6a 06 be e3 0a 40 bd a0 ba 4e be cb 22 77 bc
       -0.13126503 -0.046885382 -0.2018838 -0.015083979
000080 6b db d7 bd d0 3c 8b 3d 27 cf a1 bc 28 9e e5 bd
       -0.105398975 0.067987084 -0.019752098 -0.112118065
000090 a8 1e e1 be 6e 97 60 bd d6 53 90 be b5 99 c1 3d
       -0.439687 -0.054831915 -0.28188962 0.094531454
0000a0 f2 7d b8 3e db 22 72 3c 30 17 52 3b 38 52 a5 3d
       0.3603359 0.014778818 0.0032057278 0.080723226
0000b0 a7 a4 2b 3d 98 78 6a 3e 59 7e a4 bd 59 a7 04 bc
       0.04190507 0.22897565 -0.080319114 -0.008096539
0000c0 86 d6 86 3d 33 ab 5e 3e 6a af 23 be c5 7d 00 be
       0.06583886 0.21744995 -0.15984884 -0.12547977
0000d0 4c c8 66 bd cf a8 af be cd e3 8e 3e b6 27 8a 3e
       -0.05634336 -0.34308478 0.27908173 0.26983422
0000e0 c4 b8 72 3c 7e a9 ae 3c c7 64 a4 bc e6 ac 1e 3c
       0.014814559 0.021321055 -0.020067586 0.009684777
0000f0 2b 0d 1e be 80 30 96 bd 68 2a 29 3d 7e 2d 48 bd
       -0.1543471 -0.073334694 0.041300207 -0.04887151
000100 ba f9 9a bd e5 97 05 bd 5d 60 a0 3e 9f 4e fe bd
       -0.07567163 -0.03261556 0.3132352 -0.124173395
000110 40 66 35 3e dd 4d 9d 3e f7 70 17 3e bc f7 80 bc
       0.17714787 0.30723467 0.14789186 -0.015743129
000120 6c 31 bb bb 4d d3 1f bc b0 db 84 bd cf e6 6d bd
       -0.0057126787 -0.009754968 -0.064872146 -0.058081444
000130 d6 0c ce bd 8f 41 05 bd 39 dc 9f 3c a9 65 9e bd
       -0.10061042 -0.032533225 0.01951419 -0.07734234
000140 be e8 c1 3d f2 87 cc bd c4 31 50 3c 77 ab 50 3e
       0.0946822 -0.09986867 0.012707178 0.20377909
000150 a2 76 7b be 50 39 5d 3c 44 35 81 3d 52 41 51 3d
       -0.24556974 0.013502434 0.06308988 0.051087685
000160 9d 89 2c 3e ed f5 26 3e 4a 6a b3 3e fe 5a cd bd
       0.1684937 0.1630475 0.3504203 -0.10027121
000170 d5 77 90 bd ca c8 88 bd 12 b9 13 3e 24 e9 4d 3d
       -0.07054106 -0.066789225 0.14426067 0.05027117
000180 80 95 89 3e 2f 3c 8c 3e a2 38 f2 3d c8 1f 6f be
       0.26871872 0.27389666 0.11827208 -0.23351967
000190 6c 83 35 3e 95 6b c5 3c e8 95 cb 3c 2c a8 eb ba
       0.17725915 0.02409915 0.024851754 -0.0017979196
0001a0 d0 ba 90 3d 75 af 34 3e 9a 48 97 3d 9e 70 ae 3e
       0.07066882 0.17645057 0.073868945 0.34070295
0001b0 04 d7 17 3e 51 33 21 3e 16 5a 97 3d 77 fe 18 3c
       0.14828116 0.15742232 0.073902294 0.009338013
0001c0 e5 a8 88 3c 81 da 78 3e c8 1f 42 3d ab 08 29 3e
       0.016682098 0.24302103 0.04739359 0.16507213
0001d0 5e ff 1e 3d bd 7f 6c 3c 7c 7f b6 bc 1e 14 92 3d
       0.038817756 0.014434752 -0.022277586 0.07132743
0001e0 d6 6c 8d be ee 32 06 be b3 e9 02 3e a9 30 0e 3e
       -0.27622098 -0.13105366 0.12784462 0.1388575
0001f0 bc d3 81 bd 7f 2a 4f be db 88 5f bd 64 d5 71 3e
       -0.06339213 -0.20231055 -0.054573875 0.23616558
000200 6f 27 9e be 64 15 74 3e 8b ca f6 bc f5 5b 26 3d
       -0.3088946 0.23836285 -0.030125877 0.04061504
000210 be d0 c4 3c 42 d8 68 3d 4c b2 33 3c 61 55 ea 3c
       0.024025317 0.056846865 0.010967802 0.028605165
000220 35 4b ad 3d e2 94 f7 be 0f 34 03 bc 22 21 c6 3d
       0.0846161 -0.48355776 -0.008008017 0.09674288
000230 ad 9a 4e bc 2b 47 8e be e9 fc 77 be 9a 33 51 3e
       -0.01261012 -0.27788672 -0.24217571 0.2042984
000240 29 d7 40 3e 79 39 00 be 5c 66 48 bc 4e db b5 bc
       0.18832077 -0.12521924 -0.012231436 -0.0221993
000250 6a 93 a6 bd 74 1d 0b bd b1 1a 0f be 50 01 92 3d
       -0.08133586 -0.033963636 -0.13975026 0.071291566
000260 1f 27 fb bd 09 aa a6 3d c2 e6 78 3d 5d 1b e3 bd
       -0.12263321 0.081379004 0.060766943 -0.110892035
000270 4b ae 8b bc 38 bc 75 be b2 90 c4 3d 24 f5 fc bd
       -0.017050883 -0.23997581 0.09597911 -0.12351444
000280 1d 5a 7b be ce ac ff 3b d9 20 56 3a ba 4a 9f 3c
       -0.24546094 0.0078025823 0.0008168347 0.019444812
000290 5a 9f 6f 3c c1 2b 01 be cf 82 dc bb 05 ab 06 bf
       0.014625395 -0.12614347 -0.006729461 -0.52604705
0002a0 38 7c 1b 3d 8c 51 15 bc 48 18 82 bd ed 80 a8 3d
       0.03796026 -0.009113681 -0.063522875 0.08227716
0002b0 27 54 2e 3d db 42 f8 3d 8a 5c 2f be 14 c6 fc 3e
       0.042560723 0.12122127 -0.17125145 0.49369872
0002c0 f3 ab d8 3b 68 27 57 b9 db 0e 0d 3c 36 9e cd 3b
       0.006612295 -0.00020518678 0.008609499 0.0062749637
0002d0 88 69 66 be 57 2f 7c 3d ef 2c ae 3e ad 41 f9 bd
       -0.22501194 0.061568584 0.34018657 -0.1217073
0002e0 75 27 6c bd 7f 77 a0 bd 88 f4 c9 bb c3 3e ac bd
       -0.057654817 -0.07835292 -0.0061631836 -0.08410408
0002f0 8c 30 9e 3d 1c eb 36 bf 7e 31 a6 bd dc 5c 71 bd
       0.07724103 -0.714525 -0.08114909 -0.05892645
000300 fd a5 47 bd 66 0c 88 bd 54 72 10 be d2 de ea bd
       -0.048742283 -0.0664299 -0.14106113 -0.11468281
000310 4d f9 86 ba 65 b4 90 3d 13 11 6b bd a6 a2 a4 be
       -0.0010297686 0.070656575 -0.05738933 -0.3215534
000320 16 31 0f 3d 6c 3d 4b be 3d 8b 40 3e ff 28 84 be
       0.03495892 -0.1984765 0.18803115 -0.25812528
000330 23 86 1d be 07 01 42 3e ee 40 a3 bc 78 bb 4e bc
       -0.153832 0.18945704 -0.019928422 -0.012617938
000340 f0 79 39 3c 9d a4 1a bd b0 94 18 3e d1 1d a6 3d
       0.011320576 -0.037754644 0.1490047 0.08111156
000350 a5 eb 09 3f b6 6c 1b be e4 c1 07 3e 98 c2 34 3e
       0.5387519 -0.15178189 0.13257557 0.17652357
000360 a8 38 3c be 2c 7b 11 bd 3f 7b b7 bd 10 2e 27 bd
       -0.18380988 -0.035517856 -0.08959054 -0.040815413
000370 34 3d 46 be 8b 25 19 bd 18 aa 90 bc d5 33 6e bd
       -0.19359285 -0.03738932 -0.017659232 -0.0581549
000380 70 e2 64 bc c4 86 5c bc 05 2e ba 3d b0 6b a4 3e
       -0.0139700025 -0.013459865 0.09090809 0.3211341
000390 81 2f 11 be 70 29 19 be 54 e8 e3 3d e6 cf 80 3e
       -0.14178278 -0.14957213 0.111282974 0.25158614
0003a0 d6 9b 2a 3e 9d f6 89 bd b0 b7 3e be 62 3b aa be
       0.16661009 -0.06736491 -0.18624759 -0.3324843
0003b0 c1 50 4a bd 38 38 ea bc b1 74 e2 bc 3e d1 80 bd
       -0.04939342 -0.02859126 -0.027643533 -0.0628991
0003c0 e6 79 84 be ce 43 46 3d 6f f0 3a 3d 2a 40 39 bd
       -0.2587425 0.048404507 0.04563945 -0.045227207
0003d0 bc 45 a6 3d d4 d1 b1 bc 63 99 94 3e 80 cf 00 bf
       0.081187695 -0.0217065 0.29023275 -0.5031662
0003e0 a2 96 9f 3e 94 21 22 bd 5a 58 09 be 1c 41 c4 bc
       0.3116961 -0.039582804 -0.1341261 -0.023956828
0003f0 1a 53 88 bc d7 9a 9a bc a7 84 85 bd c1 a8 3a bc
       -0.016641188 -0.018872662 -0.06519442 -0.011392773

hid1.bias f4 [30]
000000 28 6f 53 3e 78 2a 95 3e 68 83 00 be c8 14 17 be
       0.20647871 0.29133964 -0.12550128 -0.14754021
000010 e8 f9 8a 3d cb d6 48 3e 79 ec 9a 3e 3f d9 37 be
       0.06785947 0.19613187 0.3025854 -0.17953967
000020 01 60 fb 3d f2 e0 0f be 97 19 44 3e 4d f5 ee bd
       0.12274171 -0.14050654 0.19150387 -0.11667881
000030 33 9e cd bd a4 07 84 3e 82 e6 32 3d ac 58 6c bd
       -0.1003994 0.2578708 0.04367686 -0.05770175
000040 03 4e 1c be d5 0a 4f 3e 1e ed 20 be 76 9b 09 bd
       -0.15264134 0.20218976 -0.15715453 -0.033595525
000050 da 7a 20 be bf 59 0e be 2f 17 0b be 4f 15 2d be
       -0.15671864 -0.13901423 -0.13583063 -0.1690266
000060 93 bf 6c 3e f8 dc 8a bd f0 58 d6 bd 99 33 40 3d
       0.23119955 -0.06780428 -0.10466182 0.046924207
000070 38 8d b9 3d a9 29 d6 3d
       0.090601385 0.10457165

hid2.weight f4 [100, 30]
000000 87 45 1f be 55 b5 06 3e 91 de a5 3c 07 8f df bd
       -0.15553866 0.1315511 0.02024773 -0.10915952
000010 d5 55 33 be 71 8f a9 3d 1b 48 0d bd 6d 9e 3a bc
       -0.17513211 0.082793124 -0.034492593 -0.011390311
000020 4e c1 9c bd d9 7b a6 bd 9a e0 d5 bd 7c 22 64 be
       -0.076540574 -0.08129091 -0.1044323 -0.2227878
000030 d0 cb 1f 3e b6 5f bd 3d d7 0a e9 bd d0 1e bd bd
       0.15605092 0.09246771 -0.11379021 -0.09234393
000040 00 d2 87 3d 2f c0 8f 3d 91 6c 0e be aa 0f ba bd
       0.06631851 0.07019078 -0.13908602 -0.09085019
000050 5b 41 44 3b 71 45 9e 3d c0 61 d1 3c 63 da 0f 3e
       0.0029946181 0.07728089 0.025559306 0.14048152
000060 b4 1b 2f bd 2e 55 33 bd 5f b9 05 bd 7e 5b 9d bd
       -0.04275103 -0.043782406 -0.032647487 -0.076834664
000070 71 64 49 3e e7 7c 45 3d 80 f3 ee bc db f5 08 3e
       0.19667222 0.04821482 -0.029168844 0.13375036
000080 80 36 ca bd 25 10 09 bd 80 f7 97 bd 61 03 29 be
       -0.09873676 -0.033462662 -0.07420254 -0.16505195
000090 2f 13 07 3d 3d 63 2f be 10 a1 21 be 39 40 ba bd
       0.03297728 -0.171277 -0.15784097 -0.09094281
0000a0 29 e7 37 be b0 e8 a1 3d cd 24 1e 3e 0e 15 93 bc
       -0.17959274 0.0790571 0.15443726 -0.017954376
0000b0 d1 fb bb bd b5 6d 7e 3c 3b 00 19 be e2 80 33 be
       -0.091788895 0.015529086 -0.14941494 -0.17529634
0000c0 85 4a 35 be db 01 23 be 12 df 27 be b6 6c 29 3e
       -0.17704208 -0.15918677 -0.16393688 0.16545376
0000d0 9c 72 1d bd 61 a4 cb bc 40 d7 ac bd 5e 7e b3 3d
       -0.03843938 -0.024858655 -0.08439493 0.08764337
0000e0 73 39 2b be b6 5e a5 3b 12 95 75 3d f4 f6 b5 3d
       -0.16721134 0.005046691 0.059956618 0.08884993
0000f0 c4 f0 2e 3e b7 17 01 3d a8 15 8f bc 90 e8 2d bd
       0.17084032 0.031516757 -0.017466381 -0.042458117
000100 d3 2b 16 3b 78 bd a8 bd 1b dc c7 3d a1 08 1d bd
       0.0022914305 -0.08239263 0.09758779 -0.038338307
000110 d3 f7 c1 bd cd f8 82 bd 76 cb 6a bd e4 16 4a 3d
       -0.09471097 -0.06395111 -0.05732294 0.049338236
000120 55 6c 0b 3e f2 43 0c bd 8a 0b a7 3d df 07 7b be
       0.13615544 -0.034244485 0.08156498 -0.24514721
000130 33 46 ef bd 2c dc bc 3c 2a d4 88 3d fc 09 28 bb
       -0.11683311 0.023054205 0.06681092 -0.0025640717
000140 14 df 15 3e fb c3 cf 3d 38 dd 7c bc 51 e1 0a 3e
       0.14635879 0.10144802 -0.015433602 0.13562514
000150 04 23 14 3e d4 6f ce 3d c4 b8 5b 3c 51 61 28 bd
       0.14466482 0.10079923 0.013410751 -0.041108433
000160 bb 2e 05 be 2a 35 45 3c 3e bc d7 3b e1 3b 1d be
       -0.13006108 0.012036601 0.0065837195 -0.15354873
000170 62 e2 ac 3d 40 9b 72 3c 10 b7 0b be 78 f5 f2 bd
       0.084416166 0.014807522 -0.13644052 -0.11863226
000180 7c bd ee bd 07 53 00 bd a1 04 21 3e 17 52 10 3e
       -0.11657235 -0.03132918 0.15724422 0.14093815
000190 05 2a 35 be 2d 79 d1 3c ff 5e 39 be 4a 8e f9 bc
       -0.1769181 0.025570476 -0.18102644 -0.030463357
0001a0 29 a8 ee 3c 01 cf 40 be 5d 25 42 3d 5b 69 1f be
       0.02913292 -0.18828966 0.047398914 -0.15567534
0001b0 a2 46 68 3c cd a5 a7 bb f6 b1 df bc 3f c3 81 bd
       0.014176996 -0.0051162005 -0.027306538 -0.06336068
0001c0 20 f8 d6 bd ec 41 df 3d 50 e8 dd 3c 40 23 88 bb
       -0.10496545 0.109012455 0.027088314 -0.0041545928
0001d0 96 cd 93 bd 4a 92 db bc 5a 50 8c 3d c4 42 28 be
       -0.07216947 -0.026803154 0.06851263 -0.16431719
0001e0 3f 1a 3d 3d fa 94 8b 3d 2a 21 c6 bd ce 79 86 3d
       0.04616761 0.068155244 -0.09674294 0.06566201
0001f0 58 8a 25 3e c3 81 56 3d c7 c3 5d bd da 8d 32 be
       0.16166055 0.052369844 -0.054141786 -0.17436925
000200 72 35 25 be 4b c5 35 3d 5c 7c 62 3e 5a ee 76 3d
       -0.16133669 0.044377606 0.22117752 0.060285904
000210 90 a6 86 3e 09 79 83 3c 68 2c 81 bc 17 ea 76 3d
       0.26298952 0.016048925 -0.015768245 0.06028184
000220 e2 27 bf 3d bd db a1 bd a7 d7 fb 3d 05 8e c4 bd
       0.09333779 -0.0790324 0.12296992 -0.095974006
000230 41 f5 f3 3d a0 a1 90 3d 58 51 14 bd f7 04 4b 3e
       0.11912013 0.070620775 -0.036210388 0.19826113
000240 5d f1 8f bd 30 11 10 be 2f c7 d6 3b 43 a1 0b be
       -0.07028458 -0.14069057 0.0065545063 -0.13635735
000250 3e 68 96 3c 82 30 8f 3d 6d f2 73 3c 0c 88 d6 bd
       0.018360253 0.06991674 0.014889342 -0.10475168
000260 52 6b 03 3d 95 75 37 3d db b8 b9 bd 5b 71 9c bc
       0.03208477 0.04478987 -0.090684615 -0.01909702
000270 0b cc cd bd d5 b5 56 3d c1 2d 0c 3e 44 a8 1d 3e
       -0.10048684 0.052419502 0.13689329 0.1539622
000280 e4 89 3c be 7c 47 d6 bb f0 c8 f2 bd ee 36 81 3c
       -0.18411976 -0.0065392833 -0.11854732 0.015773263
000290 6e ec c2 3d 74 64 e7 3d fa 96 0c 3e d1 69 2b bd
       0.09517752 0.11298457 0.13729468 -0.04184896
0002a0 f6 53 f3 bd af e0 76 bf 7c a5 ba 3d cf 9b b5 3c
       -0.11881249 -0.9643659 0.09113595 0.022169022
0002b0 b2 70 fb 3d 1d bc cf 3d 55 6d 70 bd 6c 98 9f 3d
       0.12277354 0.10143302 -0.058698017 0.07792744
0002c0 43 95 81 3d 9e bd 75 3c 54 c0 0c be 38 6a 99 bd
       0.063272975 0.014998822 -0.13745242 -0.07490963
0002d0 90 cf 3d 3e eb b5 62 3d 8a bf c3 bd ba ac 91 3d
       0.1853621 0.05534927 -0.095580176 0.07113023
0002e0 21 bc c5 bd 75 2b a4 3d 07 76 35 3e 3f 13 2a be
       -0.09655023 0.08016101 0.17720805 -0.16608904
0002f0 39 b2 54 be 40 f5 5b bd dd 29 84 3d 84 42 3c bc
       -0.20771112 -0.053700686 0.06453297 -0.011490468
000300 b5 3b 88 bd 19 69 f5 bc 8c e9 03 bd 04 49 f6 bd
       -0.06652013 -0.029957341 -0.03220515 -0.120256454
000310 39 f4 55 bd 75 a4 91 3d 78 19 e1 3d 25 7e 1b 3d
       -0.052234862 0.07111446 0.10991186 0.037962098
000320 84 8f 71 3d e5 ea c2 bc 49 09 21 bd af 3e 87 bd
       0.058974758 -0.023793647 -0.039315496 -0.06603753
000330 55 da 0e 3d aa f6 3b 3e bd e7 bd 3c 3a 23 54 bd
       0.034876186 0.18355814 0.02318179 -0.051791407
000340 33 50 04 3e bb 14 de 3d 93 8e 14 be 7b b9 53 bd
       0.12921219 0.10843798 -0.14507513 -0.05169056
000350 7f 63 25 3c 28 ab 8c 3c ac fe c4 bc ca 02 2c 3c
       0.0100945225 0.017171457 -0.024047218 0.010498712
000360 4b e6 f3 bd 77 fb fa bc f4 86 89 3d a1 e8 6b be
       -0.11909159 -0.030637486 0.067151934 -0.2303796
000370 ac 2a b7 bd 75 2b c5 3d c7 9e 15 3d cf 51 d4 3d
       -0.08943686 0.096274294 0.036528375 0.10367166
000380 ad 15 5e 3e 58 fa 00 be a1 ee 04 bf c6 38 79 3c
       0.21687956 -0.12595499 -0.5192662 0.01521129
000390 7f 81 2c 3c 8f e4 c3 bd 2b a1 6e 3b a1 42 9e 3d
       0.010528921 -0.095650785 0.0036411982 0.07727552
0003a0 cd 3e b8 bc 47 61 5f be f8 07 7b 3e 11 37 5d 3e
       -0.022490883 -0.21814452 0.24514759 0.21603037
0003b0 23 f1 f4 bd 30 53 b4 bd e5 c8 14 bc a6 0e e5 3c
       -0.11960056 -0.08804929 -0.0090811 0.027961086
0003c0 77 54 01 3e 8f e8 32 be 5b d6 86 be e7 61 54 3d
       0.12629877 -0.17471527 -0.26335415 0.05185118
0003d0 53 b6 12 be bd f6 5c bd 24 d8 87 3d 24 47 83 bd
       -0.14327364 -0.053946245 0.066330224 -0.06410053
0003e0 51 6c 16 3d 8e e6 8e be 5e f5 3f bd f6 fe 9a be
       0.036724392 -0.27910274 -0.04686486 -0.30272645
0003f0 c7 f8 29 bb 28 00 da 3c 4a 10 28 3e 28 36 11 be
       -0.0025935636 0.026611403 0.16412464 -0.14180815

hid2.bias f4 [100]
000000 67 95 09 3c 60 50 e2 bd df a9 6f 3d b7 cf 29 be
       0.008397437 -0.110504866 0.05851161 -0.16583143
000010 95 6e 39 3d 23 2d aa bd ec 3b 64 bd 49 93 8e bd
       0.045271475 -0.083093904 -0.05572121 -0.06961686
000020 40 29 cc bd ed 1d f2 bd 40 43 4c be 2f 6c 1d 3e
       -0.09968805 -0.11822114 -0.19947529 0.153733
000030 d2 7d 75 bd b4 0c ed bd 56 ca 55 be d8 9a 8a 3e
       -0.059934445 -0.115746886 -0.20877966 0.2707126
000040 ae 17 e4 3d 2c 4f 05 be 76 aa 90 3d 4e a1 e4 bb
       0.11137329 -0.13018483 0.07063763 -0.006977237
000050 12 b1 83 bd 37 ee 10 3e 0e 99 f1 3d bf b3 40 ba
       -0.06430258 0.14153372 0.11796771 -0.0007351003
000060 b7 14 43 be ed f9 bb bd cb e8 d2 3d 83 8b 17 3c
       -0.19050871 -0.09178529 0.10298308 0.009249571
000070 e0 33 2d 3c 26 56 2e 3e 34 db a5 3d 66 94 a3 3d
       0.01057145 0.1702505 0.0809845 0.07987289
000080 1f 5e 28 3e dd 9a e5 bb 3e f2 6e 3c 77 0b f2 bd
       0.16442154 -0.0070069865 0.014584122 -0.11818593
000090 8c ce 85 3d 2b b2 ea bc f1 e0 5b 3e b9 21 6d be
       0.06533536 -0.02864941 0.21472527 -0.23157395
0000a0 eb 45 db bc 08 ae e2 bd d1 5a 50 3e 2d 92 9e 3d
       -0.026766738 -0.1106835 0.20347144 0.077427246
0000b0 d0 92 85 bd df 05 e1 bd 92 b0 ff bd 9f c8 86 be
       -0.06522143 -0.10987448 -0.1248485 -0.26324937
0000c0 ce 11 26 3c 6f fa f0 3d b8 96 88 bd 05 3e 5d bd
       0.010136081 0.117665164 -0.06669372 -0.054014225
0000d0 61 cc bb bd ab 1a 9e bd ce ed 39 be c3 b9 f1 3d
       -0.091698416 -0.0771993 -0.18157122 0.11803009
0000e0 a0 2c 6a 3d e8 76 90 bc 1f 89 9d bd f6 b0 2c 3e
       0.057171464 -0.017634824 -0.076921694 0.1686438
0000f0 04 b6 f1 bc 4b f7 b7 bd ab 00 ad 3c 90 78 62 3c
       -0.029505737 -0.08982714 0.021118483 0.01382269
000100 17 31 da 3d 14 3c 60 bd dd a5 f6 3d 01 f7 3c 3e
       0.106538944 -0.054744795 0.12043355 0.184536
000110 61 35 5b 3d bc c3 24 3d 0a 4f 41 3e 25 54 6b be
       0.053517703 0.04022573 0.18877807 -0.22981317
000120 9c e0 82 3e ec fe c7 bd 1e a1 ee 3d 7d b0 56 3e
       0.25561988 -0.09765419 0.116518244 0.20965762
000130 33 39 f8 bd 98 f4 11 3d 78 e3 49 bd 99 44 8c bd
       -0.12120285 0.035633653 -0.049289197 -0.068490215
000140 96 b3 87 3e db c0 61 bc a1 12 05 3e dc 6e ae 3e
       0.265042 -0.0137788905 0.12995388 0.34068954
000150 e9 71 b1 3d ca 0a 70 3d 43 b1 a3 bb df 16 05 bd
       0.08664305 0.05860404 -0.0049954965 -0.032492515
000160 05 8e a9 3d df 0a 36 bd 62 1e 81 3e 57 98 4e 3d
       0.08279041 -0.04444396 0.25218493 0.05043825
000170 0d 6b 0a 3e bd eb 4a 3e e5 8d f7 3d 9b d2 87 3d
       0.13517399 0.1981649 0.12087611 0.06631967
000180 10 0c 34 be bd 7b 5d bd 29 73 3a 3e 47 20 59 3d
       -0.17582726 -0.054073084 0.18207993 0.053009298

batchnorm1.weight f4 [100]
000000 4e 3d 8f 3f 5b 65 7c 3f 15 be 8f 3f 3d 86 7c 3f
       1.1190584 0.98592156 1.1229883 0.9864233
000010 a8 fa 88 3f 3e cd 8b 3f ee 8d 93 3f 83 f8 8b 3f
       1.0701494 1.092201 1.1527689 1.0935215
000020 a1 85 8f 3f 12 c3 9d 3f fd 7c 9a 3f ab 97 8f 3f
       1.1212655 1.2325156 1.2069393 1.121816
000030 70 8d 8d 3f 45 de 97 3f 48 21 90 3f b9 5c 8c 3f
       1.1058788 1.1864706 1.1260157 1.0965797
000040 b9 ad 94 3f a5 ae 99 3f b7 c5 8a 3f 50 93 97 3f
       1.1615516 1.2006422 1.0841588 1.1841831
000050 40 ea 82 3f 11 a2 8f 3f 64 45 8f 3f cb 05 90 3f
       1.0227737 1.1221334 1.1193051 1.1251768
000060 21 47 90 3f c3 9a 87 3f 00 e3 86 3f e6 9a 87 3f
       1.1271707 1.0594105 1.0538025 1.0594146
000070 8d 3f 90 3f 80 dc 93 3f 9a 21 8f 3f c3 20 95 3f
       1.1269394 1.1551666 1.1182129 1.1650623
000080 c7 7c 88 3f bf b8 91 3f 2e e4 8e 3f 71 b1 8f 3f
       1.0663079 1.1384505 1.1163385 1.1226026
000090 c3 51 89 3f 72 84 97 3f 4e 59 8f 3f 0a d8 8f 3f
       1.0728077 1.1837294 1.1199129 1.1237805
0000a0 b2 2b 8b 3f 93 54 8c 3f 09 fe 85 3f 7c f0 8e 3f
       1.087271 1.096331 1.046815 1.116714
0000b0 79 8a 97 3f e8 16 8b 3f 6a 12 94 3f 50 0c 9a 3f
       1.1839134 1.0866365 1.156812 1.2035007
0000c0 85 d6 97 3f fe f3 8c 3f 50 04 a7 3f 79 52 99 3f
       1.1862341 1.101196 1.3048191 1.1978294
0000d0 e6 74 8d 3f da 7a 91 3f 4b 50 8c 3f 7c f3 8f 3f
       1.10513 1.1365616 1.0962003 1.124618
0000e0 3e 2f 84 3f c4 a1 8e 3f 79 06 8d 3f 9a 70 8b 3f
       1.0326917 1.1143117 1.10176 1.0893738
0000f0 d7 62 9a 3f e6 d8 8e 3f 39 e0 8c 3f e3 4b 90 3f
       1.2061414 1.1159942 1.1005927 1.1273159
000100 f4 ac 8a 3f c2 44 8f 3f 35 ae 8f 3f a0 3c 89 3f
       1.0834031 1.1192858 1.1225039 1.0721626
000110 29 19 8c 3f 44 fa 94 3f 8f 58 8c 3f 46 70 94 3f
       1.0945178 1.1638875 1.0964526 1.1596763
000120 2a 57 90 3f 34 81 8f 3f 55 52 89 3f 5f 29 8c 3f
       1.12766 1.1211305 1.0728251 1.0950125
000130 8d ed 9a 3f 42 bd 94 3f 25 02 9a 3f 19 d0 82 3f
       1.2103745 1.1620257 1.2031904 1.0219756
000140 c0 ff 8c 3f 8b df 93 3f f8 a2 ad 3f 2c 95 83 3f
       1.1015549 1.1552595 1.3565359 1.0279899
000150 7a a1 85 3f 37 a7 9e 3f 36 d0 92 3f 57 61 a1 3f
       1.0439904 1.239478 1.1469791 1.2607831
000160 3f f5 93 3f cf 46 88 3f bb db 9b 3f d5 fd 93 3f
       1.1559218 1.0646609 1.2176431 1.1561838
000170 43 6b 8a 3f 6d b6 a0 3f a0 4b 95 3f 9c 65 90 3f
       1.0813984 1.2555672 1.1663704 1.1281009
000180 02 64 a2 3f 76 b3 92 3f f2 29 99 3f 4a 6c 8f 3f
       1.268677 1.1461017 1.1965926 1.1204922

batchnorm1.bias f4 [100]
000000 8c b7 3e bc 96 98 fa 3d 38 f9 e6 3b ee 7b aa bd
       -0.011640441 0.12236135 0.007048752 -0.08324419
000010 9f 08 ff bc ad dc ab bb a3 f8 78 3d a8 89 b0 bc
       -0.03113204 -0.0052448125 0.060783993 -0.021550015
000020 73 8a ef bc 4e 30 e4 bc 1c 1c 48 bb 56 2b 0f 3d
       -0.029240822 -0.027855065 -0.0030534333 0.034953438
000030 20 a6 27 bc 03 d5 81 3c df 53 81 bd 3e ad 2a 3d
       -0.010232478 0.015848642 -0.06314825 0.041669123
000040 75 9f 45 3c f4 ca 8a bb f5 2a 69 bd 4a ef ad bc
       0.012061943 -0.0042356197 -0.056925733 -0.021232266
000050 f4 ac c7 bc d1 b9 90 ba 4d d1 0e bd 9d 00 c8 bc
       -0.024374463 -0.0011041706 -0.034867574 -0.024414355
000060 53 68 14 be 97 4c 9b bc e4 ad 64 bd 2d 0a 10 3d
       -0.14492922 -0.01895742 -0.055829898 0.035165954
000070 44 08 a9 bc ab 8f 9a bb 65 cf c0 3c d2 f6 e5 3c
       -0.020633824 -0.0047168336 0.023536393 0.028071795
000080 73 39 bc bd 39 59 c5 bc 2a 7c 35 bc 77 f5 17 bd
       -0.09190645 -0.024090396 -0.011076966 -0.037099328
000090 f4 d0 86 bd af 2c 2a bb d6 ed 1a 3d 52 75 83 bc
       -0.065828234 -0.0025966575 0.037824474 -0.016047154
0000a0 9c 5a 4d 3d c7 6a 86 3c 76 b0 76 bd 5a 53 0e 3d
       0.05013524 0.016408337 -0.06022688 0.03474746
0000b0 73 b9 83 ba e1 53 d6 bc d4 05 19 3d 88 13 08 bd
       -0.0010049775 -0.026163043 0.037359074 -0.03322175
0000c0 d4 62 db bc 90 ae 01 3e fa db 4e bc 9b 4f af bc
       -0.026780523 0.12664247 -0.012625689 -0.021400264
0000d0 7f fc 21 bd 7c 81 d4 bb 67 70 24 3d 1b 19 cf bc
       -0.03954744 -0.0064851623 0.040146258 -0.025280526
0000e0 33 58 58 bc 0a 48 9d bb b4 db 09 be 9c 7c 39 3d
       -0.013204622 -0.0047998475 -0.13462716 0.045284852
0000f0 f8 b3 6e 3b 1a 43 39 3c c5 65 49 bd 39 31 5b bd
       0.0036423188 0.011307502 -0.04916932 -0.05351374
000100 ce b2 c0 3d 8d e2 4f bd 21 f8 a2 bc b9 a4 b3 3b
       0.09409104 -0.050753165 -0.019893708 0.005482283
000110 3d de b6 3d 67 5f aa bc c4 96 15 bd a5 8e 1e 3b
       0.08929107 -0.020797445 -0.036520734 0.002419391
000120 32 09 9e 3b 9e 62 0c bd 5d e6 0e 3d 78 a7 d0 3d
       0.0048228735 -0.034273736 0.03488766 0.10188192
000130 89 b9 33 3d 63 fd 2a 3d 1b cd 55 3c d0 10 20 bd
       0.043878112 0.041745555 0.013049389 -0.039078534
000140 06 63 94 bc 95 09 9b 3c 6a 07 05 be 58 da 35 3c
       -0.018113624 0.018925468 -0.1299111 0.0110994205
000150 a3 5e 0d bd ff db e3 bc 44 c1 07 be 10 05 9a 3b
       -0.03451408 -0.027814863 -0.13257319 0.0047003105
000160 77 26 d8 3b 2d 0c 0e bc af 96 83 3c cd 9d 9d 3c
       0.0065963822 -0.008669895 0.016063062 0.019240284
000170 54 9a a6 bc 5e 19 45 bc 73 9c dc 3d 62 77 b7 3b
       -0.020337261 -0.012029974 0.10772028 0.0055989483
000180 10 36 c1 bc 11 35 3c bd 87 3f 67 bc d4 3f 46 3c
       -0.02358535 -0.045949046 -0.014114267 0.012100179

batchnorm1.running_mean f4 [100]
000000 77 90 9e 3c 04 00 00 00 b8 26 29 3e 04 00 00 00
       0.019355996 6e-45 0.16518676 6e-45
000010 94 a8 8b 3e c6 4b ef 3b 2e 94 a3 3d 66 2a 96 3d
       0.27277052 0.007302734 0.079872474 0.073323056
000020 84 aa 09 3c bd 1f 9a 3c 0b f0 63 3c a8 7a 03 3e
       0.0084024705 0.018813962 0.013912211 0.12839758
000030 c3 de 66 3d a9 21 6a 3d 32 e1 af 3c e1 d3 8d 3e
       0.056364786 0.057161007 0.021469686 0.27700713
000040 bc 96 b8 3d 8b 11 aa 3c 3a 70 d1 3d 76 90 92 3b
       0.09013125 0.020760318 0.10226484 0.0044727875
000050 a0 f6 84 3e 2b aa 10 3e 9a 72 2b 3d 79 88 b4 3c
       0.2596941 0.14127414 0.04185734 0.022037731
000060 99 f3 cb 3d 6f 08 f4 3c 9a 66 81 3d 36 bb 13 3d
       0.09958572 0.029789178 0.06318398 0.03606721
000070 16 74 28 3e 5a 7f 22 3e 26 90 06 3d 26 71 eb 3c
       0.16450533 0.15868893 0.032852314 0.028740477
000080 4a 6c 04 3e 18 af 5a 3d f5 f0 a1 3c f6 a3 19 3c
       0.12931934 0.05338964 0.019768218 0.00937747
000090 7b 07 24 3e ea ca 1e 3d de 9e db 3d 38 cd 1e 3e
       0.16018479 0.038767733 0.10723661 0.15507972
0000a0 ff a9 a1 3e 40 fb 9c 3d 76 cb ef 3d 81 ff 0c 3d
       0.3157501 0.0766511 0.11708729 0.034423355
0000b0 43 d3 d6 3c 3f 6a cb 3c 1e f9 12 3c cc e8 59 3c
       0.026223784 0.024830936 0.008970527 0.013300132
0000c0 fe ee 74 3c 55 1a 7a 3d 64 db 54 3b 87 df 52 3c
       0.014949558 0.06106027 0.00324794 0.012870676
0000d0 e4 2d b4 3d ec 73 00 3d 40 13 01 3a 37 84 e4 3d
       0.087978154 0.03136055 0.0004923828 0.111580305
0000e0 70 26 0e 3e f3 f7 10 3c 95 87 f7 3c 22 0f cb 3e
       0.1388185 0.008848178 0.030216018 0.39659983
0000f0 57 5f bd 3c b3 41 19 3e 32 e3 68 3d 76 22 2b 3d
       0.02311675 0.14966469 0.056857295 0.04178091
000100 77 fd 13 3e da d8 95 3d 34 dc 99 3d 0c c1 f8 3d
       0.14452158 0.07316752 0.075127035 0.12146196
000110 29 c5 3f 3c 26 dc f9 3c aa d3 39 3d 87 01 12 3c
       0.0117047215 0.030500483 0.045367874 0.008911497
000120 ef 8b 82 3e e6 96 2e 3d e3 27 d6 3d 3a 6a 0e 3e
       0.25497386 0.042624377 0.104568265 0.1390771
000130 ec fc f6 3b 94 53 0a 3c f3 cf 90 3d 31 b5 db 39
       0.007537475 0.008442778 0.07070913 0.00041905933
000140 89 5e 95 3d ad 0d 8b 3d 46 35 02 3d 1e 24 bc 3e
       0.07293422 0.06789718 0.031789087 0.36746305
000150 1f 6e 63 3e 9c 25 aa 3d 5f ca 9c 3d 2b ed 26 3a
       0.22209977 0.08307955 0.07655787 0.0006367738
000160 f5 b6 22 3c 38 7a e0 3c 11 c9 dc 3c 80 f2 dd 3d
       0.009931316 0.027402028 0.026951345 0.10837269
000170 36 e6 24 3e 14 4d 21 3c d8 28 41 3d 61 66 7a 3d
       0.16103444 0.009845037 0.047158092 0.061132792
000180 6f 72 9c 3b cc 5a 73 3d f0 16 05 3e f0 d1 e1 3d
       0.0047743837 0.059412763 0.12997031 0.110263705

batchnorm1.running_var f4 [100]
000000 8f af b2 3a 04 00 00 00 a2 f0 63 3c 04 00 00 00
       0.0013632643 6e-45 0.013912352 6e-45
000010 26 4a bb 3d ec 1f 47 3a 3f 31 d0 3b b6 55 55 3c
       0.09145002 0.0007596004 0.006353527 0.013020923
000020 7d dc 24 3a f5 d1 2c 3b 3f 3a d0 3a 76 ce 72 3c
       0.0006288959 0.0026370261 0.0015886499 0.014819732
000030 87 aa db 3b 61 1a 02 3c 92 a5 28 3b 13 0f d2 3c
       0.006703678 0.0079408595 0.0025733453 0.025641954
000040 aa f3 6f 3c 38 9d 66 3b a7 cb a9 3c 9e b2 64 39
       0.014645496 0.0035188925 0.020726992 0.00021810315
000050 32 0b 53 3d 7f ab b7 3c bb 64 bb 3b 84 ee b4 3a
       0.05152435 0.022420643 0.005718795 0.0013803993
000060 f6 44 00 3c d1 68 47 3b 71 98 a1 3b 6d 18 81 3b
       0.007828942 0.0030427466 0.0049315025 0.0039396794
000070 68 bd 21 3d 73 30 7c 3c 14 92 5c 3b 49 1e 5f 3b
       0.039487273 0.015392411 0.0033656405 0.003404515
000080 a9 75 ca 3c 5f 87 06 3c 7d e8 b3 3a 20 ee 42 3a
       0.024714308 0.008210986 0.0013725903 0.0007435996
000090 5f 01 eb 3c aa fd 69 3b ca 69 40 3c 84 0d 97 3c
       0.028687177 0.0035704174 0.011743972 0.018439062
0000a0 d3 6a 20 3d e7 ce 62 3c da d5 86 3c 5a e6 48 3b
       0.039164376 0.013843275 0.016459394 0.0030654878
0000b0 f7 d5 70 3b 65 29 b2 3b ae 15 14 3a 69 18 83 3a
       0.0036748627 0.0054370635 0.00056489825 0.0010001782
0000c0 a3 a9 8f 3a 48 e4 ff 3b 0d 07 45 39 0a 72 83 3a
       0.001096059 0.0078091957 0.0001879001 0.0010028493
0000d0 40 f6 59 3c 5c 74 ae 3b fe 95 b8 37 19 b5 a2 3c
       0.0133033395 0.0053239297 2.2004355e-05 0.019861745
0000e0 e0 fd 91 3c 33 77 10 3a ae aa 42 3b 9b 41 2e 3d
       0.017821252 0.0005510926 0.0029703784 0.042543035
0000f0 b2 f0 e3 3a d2 55 b2 3c 08 86 cc 3b 72 87 8c 3b
       0.0017390458 0.021769438 0.0062415637 0.0042886073
000100 2e ce e9 3c b0 8f 1a 3c 82 aa 5b 3c 75 c3 3e 3c
       0.028540697 0.009433672 0.013407351 0.01164328
000110 84 e8 50 3a 44 a6 43 3b 9c c6 6b 3b fe 51 31 3a
       0.0007969218 0.002985374 0.0035976535 0.0006764232
000120 4b 52 3f 3c 01 4f a5 3b 94 71 e7 3b 26 fa 8d 3c
       0.011677335 0.0050448184 0.0070631 0.017331194
000130 55 ef f0 39 42 d0 13 3a 0e 5c 16 3c c2 36 96 37
       0.00045954683 0.0005638638 0.009177221 1.7906892e-05
000140 d9 99 a0 3b 9b 90 e0 3b 97 52 27 3b 42 f2 b2 3c
       0.0049011526 0.006853176 0.0025531405 0.021844033
000150 ef 85 0e 3d 12 a0 24 3c 6b 45 72 3c ea ed 0a 38
       0.034795698 0.010047929 0.014787058 3.312334e-05
000160 ae 3c 17 3a 5d e4 6e 3b cb 5d 29 3b 25 03 09 3c
       0.0005769235 0.0036452033 0.0025843258 0.008362566
000170 59 fd 88 3c eb 30 47 3a 5a e3 b6 3b 90 ad 2e 3c
       0.016722368 0.0007598537 0.0055813016 0.010661498
000180 f5 8b 08 3a 55 fc a9 3b ea f4 58 3c 94 9b fc 3b
       0.00052088435 0.005187551 0.013241986 0.007708976

hid5.weight f4 [50, 100]
000000 a1 94 c7 bc 74 ee 01 3d a5 af 6e bb 20 d1 6a bd
       -0.024362864 0.031721547 -0.003642061 -0.057328343
000010 0f ac 13 bd d9 d2 9e bd cf 15 89 3d 27 fa 1e bc
       -0.03605276 -0.0775506 0.06693613 -0.009703196
000020 dc ce 5c bd aa de ff bd cd 90 3d be d3 42 51 3e
       -0.053908214 -0.12493642 -0.18512268 0.20435648
000030 50 05 c7 3d 78 b1 04 bd f6 b2 ba 3d 22 98 ad 3d
       0.0971781 -0.03239581 0.09116165 0.08476283
000040 51 f4 d1 3d 93 33 a5 bd 31 b2 35 be b0 f2 20 bd
       0.10251678 -0.080664776 -0.17743756 -0.039293945
000050 51 a0 00 be 9c 32 05 be 3b 27 1a be 1d f7 24 bd
       -0.12561156 -0.13007587 -0.15054028 -0.040274728
000060 c6 11 87 3d 0e 82 19 3d e6 83 69 bb 37 03 3b bc
       0.06595187 0.037477545 -0.0035631596 -0.011414341
000070 d3 3c 5b 3c 8a dd fb bd 20 c9 1f be d1 a5 00 3e
       0.013381201 -0.122981146 -0.15604067 0.12563254
000080 f2 0f 27 be c9 b0 6a bd 96 9b 50 bd 27 57 e6 3c
       -0.16314676 -0.0572975 -0.05092963 0.02811773
000090 c7 a8 ac 3c 9e 44 a7 bd 09 ab 15 3e 86 14 88 bd
       0.021076573 -0.081673846 0.14616026 -0.066445395
0000a0 b7 a7 01 bc 4e 89 77 b9 1e 33 82 3d 3f d4 2e 3c
       -0.0079135215 -0.00023606906 0.06357406 0.010670721
0000b0 55 26 5b 3e 9c 26 1f be 82 0d 07 be 6d d9 20 3d
       0.21401341 -0.15542072 -0.13188747 0.039269853
0000c0 e7 18 a4 3d d4 88 a0 bc ef 25 14 be 4a c3 d5 bd
       0.08012562 -0.019596495 -0.14467596 -0.10437639
0000d0 3e 3c 25 be e1 28 2b 3d c6 64 34 3e df ab df 3d
       -0.16136262 0.041787032 0.17616567 0.10921454
0000e0 69 03 9a bc 5c a1 76 bd a6 0e 98 3c 94 05 65 3e
       -0.018800454 -0.060212478 0.018561672 0.22365409
0000f0 78 45 0c bd ac 9d 0e 3e e3 6d 97 3c 8e 2f 11 be
       -0.034245938 0.13927335 0.018485015 -0.14178297
000100 3e 2c ff 3d 6a ae be bd 4f 05 11 be 20 73 23 3e
       0.124596104 -0.093106106 -0.14162181 0.15961885
000110 cb c8 d0 bc 9f 40 45 be 0a fe 97 bd 7d 99 ca 3d
       -0.02548637 -0.19262932 -0.07421501 0.09892557
000120 7f 31 87 bd 65 d2 f0 bd ad bf e1 3d f7 86 b6 bd
       -0.066012375 -0.117588796 0.110228874 -0.08912461
000130 f0 ed 06 3d bd 80 20 3d 46 39 f6 3c 64 c6 ee 3d
       0.03294176 0.039185274 0.030056607 0.11658934
000140 71 5b a8 3d c9 61 51 bb dc 3b 32 3e 8e 26 24 bd
       0.08220566 -0.0031949154 0.17405647 -0.04007583
000150 a5 7b 01 3e a8 0e 17 3e d0 9a 59 3d 3a c3 40 3d
       0.12644823 0.14751685 0.053126156 0.047061183
000160 78 bd 1b 3e 0d d1 33 3d 24 dd 28 bd f7 ee ff 3c
       0.15208995 0.04390054 -0.04122652 0.031241877
000170 b0 af ea bd d9 93 25 be 6a cb 00 be b0 e5 10 3d
       -0.11459291 -0.1616968 -0.12577596 0.035375297
000180 44 cf 82 bd 90 74 27 be b8 a6 2b 3d ca 7d fa bb
       -0.06387189 -0.16353059 0.041907042 -0.0076443898
000190 07 eb 2d be 85 d5 0d 3e 1f 7b ca 3d e7 b9 34 be
       -0.16984187 0.13850982 0.09886765 -0.17649041
0001a0 98 58 d2 bd d8 89 57 be dd 55 46 bd 4a 29 f3 bd
       -0.10270804 -0.21048677 -0.04842173 -0.1187311
0001b0 34 32 ce bd 0c e8 8b 3c 37 81 aa be 1c ba 36 3e
       -0.10068169 0.017078422 -0.33301708 0.17844433
0001c0 60 d6 33 be e3 c1 75 bd cf 7b 20 3d c4 f2 b2 3d
       -0.17562246 -0.059999358 0.039180573 0.0873771
0001d0 ea cc 55 bb 9b ff 60 be bd 40 0f 3b 24 d6 16 bb
       -0.003262336 -0.21972506 0.0021858655 -0.0023015821
0001e0 69 b6 e7 bd a2 68 9f 3d b7 4a b8 3b 94 cd a0 3d
       -0.11314089 0.07783629 0.005624141 0.07851711
0001f0 50 b5 02 be 01 35 02 be 45 e9 07 3e 4f 9c 6b 3d
       -0.12764478 -0.12715532 0.13272579 0.057522114
000200 dd ac 5f be 4e f2 67 be 9d 50 c5 bc 76 da a2 3d
       -0.21843286 -0.22651026 -0.024086291 0.07951824
000210 c9 f5 b6 bd dc 1d ae 3d 08 37 a1 bd c3 8d 0c 3e
       -0.089335985 0.08501789 -0.078718245 0.13725953
000220 f2 f9 e4 3d 61 ad 0e be df b4 b7 3d 97 11 dd bd
       0.11180486 -0.13933326 0.08970045 -0.107943706
000230 53 ba 84 bd 49 c0 d4 bb 3d b6 b1 3d 50 43 52 bd
       -0.06480851 -0.0064926487 0.08677337 -0.051333725
000240 26 66 3d 3d f3 27 fe bd c2 f6 e3 bc c9 b9 17 be
       0.046239994 -0.124099635 -0.027827624 -0.14816965
000250 c3 13 0b be 44 61 a0 3d 91 b7 40 be 2b b1 33 bd
       -0.13581757 0.07831052 -0.18820025 -0.043870132
000260 9d 64 2b be 71 fb 27 3d 5b e2 0c 3d 4d 74 63 bd
       -0.167376 0.041011278 0.034395557 -0.055530835
000270 18 2f b5 bd 4d e9 82 3c 0b bd 09 bc 64 87 fb 3d
       -0.08846873 0.015980387 -0.008406888 0.12281683
000280 34 73 09 be 5e 9a 30 3e c8 96 1d be 94 c6 4a bd
       -0.13422853 0.17246386 -0.1538955 -0.049505785
000290 09 21 c1 3d 57 26 10 3c bf 7d 3a be 0d a6 7d bd
       0.09430129 0.008798203 -0.18212031 -0.061925936
0002a0 22 6b 07 3d df c9 72 3c 6b 5e ac bc 17 ad 14 3e
       0.033061154 0.014818638 -0.021041116 0.14519154
0002b0 a1 c3 80 3d 0d 62 07 be 73 a4 42 3d 8e 94 3a bd
       0.06287313 -0.13220997 0.047520112 -0.04555183
0002c0 e3 ee 23 3e ee d6 6f 3c fe 89 48 3e 7d 18 07 3e
       0.16009097 0.014638646 0.1958389 0.13192935
0002d0 94 a6 ba bc 53 5e 03 3d 24 1d 26 be de 9f 9f 3d
       -0.022784509 0.032072376 -0.16222054 0.07794164
0002e0 6b d8 86 3d 55 71 2d be b5 fc 20 3e 51 2a 06 be
       0.06584247 -0.16937764 0.157214 -0.1310208
0002f0 5c ec fd bd 95 df 2f be 3f 02 36 bc 11 1f 56 be
       -0.123985976 -0.17175134 -0.011108934 -0.20910288
000300 8f f4 70 bc f7 72 3f bd 20 c1 0d be e6 21 bc 3d
       -0.014706745 -0.0467405 -0.13843203 0.09186153
000310 07 50 74 bd a9 18 cb bd 33 cd 07 be 14 c3 e8 3d
       -0.059646633 -0.09916813 -0.13261871 0.11365333
000320 7a 68 83 3c 42 7b 43 3e 4e 23 ef 3b 27 56 3c be
       0.01604103 0.19089988 0.00729791 -0.1839224
000330 86 40 25 be cc 87 91 be 5c ab df 3d e4 1d 1f be
       -0.16137895 -0.28423917 0.10921356 -0.15538746
000340 08 2f 80 be d9 09 3e be 59 68 11 3d fe 29 1e bd
       -0.25035882 -0.18558444 0.035499904 -0.038614266
000350 1a 28 20 3d 36 95 5a bd 87 54 71 bc 62 f9 08 be
       0.039100744 -0.053364955 -0.014729626 -0.13376382
000360 5a d2 81 bd af d3 08 be da 9c 0d be e1 93 8a bd
       -0.063389495 -0.13362001 -0.13829365 -0.06766487
000370 67 48 4c bc a1 f8 a3 bd 66 3b 87 bd 8a a0 61 3e
       -0.012468434 -0.080064066 -0.06603126 0.22033897
000380 14 0e 8a bd f1 0f 09 be 75 7e 36 bd 8e 55 1f 3a
       -0.067409664 -0.13384987 -0.044554193 0.00060781173
000390 19 6e b7 bd 40 00 54 bd c9 e4 21 3e fc a8 43 be
       -0.08956546 -0.05175805 0.15809931 -0.19107431
0003a0 b2 3a 12 3d 42 fb aa bc 1f fd e4 bd 44 95 47 be
       0.035700507 -0.020871762 -0.111810915 -0.19490534
0003b0 f3 48 e5 3d 93 f7 58 bd c3 1e b6 bd 61 e7 7d 3d
       0.111955546 -0.05297048 -0.08892586 0.06198824
0003c0 0e 1d 2c 3c cd 97 b9 ba 0e 6d c1 3c 51 63 39 bb
       0.010504974 -0.001415962 0.023611572 -0.0028287957
0003d0 cf b9 a0 bc dc 07 30 3e 75 e6 48 be 59 67 db bc
       -0.01961985 0.17190498 -0.19619162 -0.026782678
0003e0 7d 69 7c 3e 05 87 77 bc 27 eb 25 3e e5 82 53 be
       0.24649616 -0.015107875 0.16202985 -0.20655401
0003f0 cb 64 d8 bd 34 7c 21 bd 86 1c 22 be b7 20 2a bd
       -0.105661 -0.03942509 -0.15831193 -0.041535106

hid5.bias f4 [50]
000000 2f 26 5f bd 9f cd 96 3d f0 2a 29 3e 22 3f ba 3c
       -0.054479774 0.07363438 0.16520286 0.022735182
000010 2c ad b6 3a 6c d5 21 3c 5b ec 96 bc 7d 15 32 3d
       0.0013937107 0.009877544 -0.01842325 0.043477524
000020 99 c0 96 3d ee 87 a1 3b d4 80 77 bd f3 98 d2 bd
       0.07360954 0.004929534 -0.060425594 -0.10283079
000030 9d 37 c0 3b 24 9d 2b 3d 3d d6 2d 3d 8c 77 c4 bb
       0.0058660046 0.041897908 0.04244064 -0.0059956964
000040 46 6b 79 3d 72 0e 24 bd 85 c0 30 3d f5 05 b0 bd
       0.06089332 -0.04005284 0.04315235 -0.08594886
000050 2f 1c 6c bc 5f 9d 8e 3b 1e 95 85 3d 2a e2 88 bd
       -0.014411016 0.004352256 0.065225825 -0.06683762
000060 57 0a 5c 3d 5b 12 e5 3c f1 07 b6 bc ea 48 88 3d
       0.0537208 0.027962854 -0.022220584 0.06654532
000070 85 78 27 bd bb 0c ae 3d 08 06 8b 3c 89 73 6f 3d
       -0.04088642 0.08498522 0.01697065 0.058459792
000080 70 d3 9d bd 7f c3 c8 bb ee 12 20 bb 30 b1 b5 3d
       -0.07706344 -0.0061268206 -0.0024425345 0.088716865
000090 06 cb 2d bd 78 15 89 3c d5 05 83 3d 8e dd f4 3d
       -0.042429946 0.01673387 0.06397597 0.11956321
0000a0 4d e1 b1 3b 29 02 b4 3d 55 87 2b be 7a 5a 47 3c
       0.0054284693 0.087894745 -0.16750844 0.012167567
0000b0 5d 34 f5 bd 45 11 90 3e 1f d3 23 bd c9 a0 b3 bd
       -0.11972878 0.28138176 -0.039996263 -0.08770902
0000c0 6b 2c 84 bc e3 2b 0b bd
       -0.016134461 -0.0339774

hid6.weight f4 [25, 50]
000000 fe 44 0d 3e a4 41 b0 3d 27 18 63 3d bd 48 e3 bc
       0.1379585 0.0860627 0.055442955 -0.027744645
000010 9d 8c 51 bb ac 59 05 3e d7 e9 56 bd b9 a0 00 bd
       -0.0031974681 0.13022488 -0.0524691 -0.031403277
000020 35 8e 6d bc 34 dd 9a 3e e0 4c 99 3d 50 86 bb 3d
       -0.014499237 0.3024689 0.07485366 0.091564775
000030 74 ec 56 be 28 12 39 3d 03 f2 2f 3d aa 99 f7 bc
       -0.20988637 0.04518333 0.04295541 -0.03022464
000040 0f be 4a bc c3 9a b0 3d 2a 4a 7e 3d b3 d8 b1 3c
       -0.012374415 0.086232685 0.062082447 0.021709776
000050 2d b6 c7 3d 40 e7 c6 3d 51 12 fd 3d e2 d7 75 bd
       0.09751544 0.09712076 0.12357009 -0.060020335
000060 8c 91 38 3e 74 13 20 3e 12 79 d0 3d f7 d7 0d 3e
       0.18024272 0.15632421 0.10179342 0.13851915
000070 57 e1 22 3e 47 29 fb 3d ec ac c2 3c ef 2b b2 3e
       0.15906273 0.122637324 0.023764096 0.34799144
000080 23 cd 41 3e 41 7b b3 3d ea 72 b1 bc b1 dc f1 bb
       0.1892591 0.08763743 -0.02166124 -0.007381045
000090 4c 37 fb bc da 3c bb 3e 5f 5c 0f 3e 16 6f 93 3d
       -0.030666016 0.36569864 0.1400008 0.07198922
0000a0 db 80 0a bd 43 da f0 bc ec 3e 5e 3e 72 ef 38 be
       -0.033814292 -0.02940095 0.2170369 -0.18060091
0000b0 cc 71 85 3d 00 f4 9d be 98 cc 84 bd 54 92 5d 3d
       0.06515846 -0.3085022 -0.06484336 0.054094627
0000c0 9d 30 b0 bc ad ad b6 3d 6e a2 97 bd 96 da 58 3d
       -0.021507556 0.08919845 -0.07404028 0.052942835
0000d0 a0 57 f1 3d 45 ee 08 be 6e 9a 05 bd af 17 6b 3e
       0.11784291 -0.13372143 -0.03261798 0.22958253
0000e0 0c ae 83 bd 90 2c f6 bd be d9 2a 3e e8 1e 01 be
       -0.06429681 -0.12020218 0.16684625 -0.12609446
0000f0 fe f9 85 bd b1 c3 2b 3e ad 6a 90 be 7b bc 3b bd
       -0.06541823 0.16773869 -0.28206387 -0.045834046
000100 e0 4f d7 3e 10 31 52 3e f6 be 30 be 72 0d 6c 3d
       0.42053127 0.20526528 -0.17260346 0.05763001
000110 b7 75 34 bd 82 3e 24 3e a3 06 b6 3d 11 8c 4f 3e
       -0.044057574 0.1603947 0.088879846 0.20268275
000120 30 e9 2e be d9 d5 09 bd 23 e2 93 bd 26 da 02 3e
       -0.17081141 -0.033651207 -0.072208665 0.1277853
000130 b3 7e 5b 3d 47 da d0 3d 6e 71 e9 3d af cd 30 be
       0.053587627 0.10197883 0.11398588 -0.17265962
000140 f1 5c 1a 3e 10 2a d5 bd 89 5b f4 3d 00 f4 e4 3d
       0.15074517 -0.104084134 0.119315214 0.11179352
000150 38 04 a5 3c ed f1 5a 3d ae fe c9 bc 1d 47 56 3d
       0.020143613 0.053453375 -0.024657574 0.052313913
000160 87 5e 59 3e 22 c2 85 39 07 7b 95 3d a4 8b b9 bd
       0.21227466 0.00025512377 0.07298856 -0.090598375
000170 3a 9c a6 3d d5 92 1b be 23 38 5a be 95 ae 1e be
       0.081352666 -0.1519273 -0.21310477 -0.15496285
000180 a0 0a 73 be 73 26 0d 3d 0b 19 14 3e 42 59 3b 3e
       -0.23734522 0.034460496 0.14462678 0.18295768
000190 f8 ee 78 bd f3 2d cf bd e5 d9 25 be e0 09 a7 3d
       -0.060774773 -0.10116186 -0.16196401 0.081561804
0001a0 61 84 97 3e a4 26 ab 3d 25 18 3c 3e 07 b1 de 3d
       0.29593185 0.083569795 0.18368585 0.10873609
0001b0 b0 f3 4b bd 40 78 81 3d e1 0f 86 bd 4e 73 f2 3c
       -0.049792945 0.06321764 -0.065459974 0.029595997
0001c0 28 c5 b6 3e ed 60 12 3e 0a 42 5f bc 73 3c 12 be
       0.35697293 0.14294787 -0.013626585 -0.14280872
0001d0 25 45 0c bd b1 d3 92 3c 29 a6 44 bc 33 06 0a 3c
       -0.03424563 0.017923208 -0.012002506 0.00842433
0001e0 b8 7f b6 3d a4 73 b8 3d 2c 44 40 3e 98 98 dc bc
       0.08911079 0.09006432 0.18776006 -0.026928231
0001f0 da 67 b1 3b 75 fe 7e 3d 06 39 de 3c 3d 43 d8 bb
       0.0054139914 0.062254388 0.0271268 -0.0065998123
000200 71 0c 20 be 53 cb 81 bd 3d ac 5a 3e f4 ad f1 3d
       -0.15629746 -0.06337609 0.21354766 0.11800757
000210 b5 fe 41 bd 11 9a 37 3e 17 c1 9e 3d 3f 31 bc 3e
       -0.04736205 0.17929865 0.07751673 0.36756322
000220 cf 9e 1e 3d c6 c9 93 bd 7b 4f cc bd 2a 6c 48 3e
       0.03872567 -0.072162196 -0.09976097 0.19572511
000230 c8 4f b5 3d 79 9a 54 3d 33 c6 55 be 65 aa 70 3e
       0.08853108 0.05190513 -0.20876388 0.235025
000240 cb 8d ca bd d5 74 d5 3d 08 80 86 3d ad 15 95 3e
       -0.09890326 0.104226746 0.06567389 0.291181
000250 58 3a 1c 3e 6d b7 3f 3d 27 88 10 3d 2c 45 ac 3d
       0.15256631 0.046805788 0.035286095 0.08411631
000260 58 ba 1f 3c a3 46 c8 3d 47 e6 50 3d e7 94 b4 ba
       0.009749018 0.09779098 0.05100086 -0.0013777287
000270 29 65 11 3e a1 79 b2 3c 50 af 74 bd 50 07 73 3e
       0.14198746 0.021786513 -0.059737504 0.23733258
000280 03 db a9 3d 64 98 1b 3d bb 0e 5c bd 3a 10 89 3d
       0.08293726 0.037987128 -0.053724986 0.06692548
000290 5c de 83 3d 8b 33 15 be b0 bc bc 3d ef b2 b0 3c
       0.06438896 -0.14570443 0.09215677 0.021569697
0002a0 ba 90 34 3e c9 f5 24 3e aa d1 0d 3e 4e 65 c4 3d
       0.17633334 0.16109385 0.13849512 0.09589635
0002b0 59 70 ba 3d 55 1c d3 3d f3 2f 63 3e b3 1a 78 3e
       0.0910346 0.10308138 0.2218626 0.24228935
0002c0 de 6f 25 3e 84 32 ed 3d bb 31 a5 3c 33 9c 6e 3d
       0.16155955 0.11581901 0.020165315 0.058254432
0002d0 82 62 44 3c bc ba a1 3d d1 91 02 3e 0c dc 1b 3e
       0.011986377 0.07896945 0.12750937 0.1522066
0002e0 23 02 34 bd be 3d 91 bd d2 89 3b 3e 9c b6 ab 3e
       -0.04394735 -0.070918545 0.18314293 0.33537757
0002f0 2a f6 83 3d 37 1c 2b 3e 1e 78 38 3d bd 28 dd 3d
       0.064434364 0.16709982 0.045036428 0.10798786
000300 7b 10 30 3d 1b a3 9f be d9 37 35 3e 21 2a 9a be
       0.042984467 -0.31179127 0.17697085 -0.30110267
000310 44 c2 36 3e 9d 16 9b 3e f2 a7 25 3e 34 de 82 3d
       0.17847544 0.3029069 0.16177347 0.06390038
000320 0c 9b 51 bd 58 2d 9c 3d 06 ef c9 3d 39 90 a4 39
       -0.051173255 0.07625836 0.09860043 0.00031387972
000330 38 84 a6 bd f2 7e 2c 3e bc ec ac 3d 64 45 47 3d
       -0.081306875 0.16845301 0.08443591 0.04865016
000340 6f 76 bc bb af 89 c8 3e 9a 27 0a 3e 5e ee 0b 3e
       -0.005751423 0.39167544 0.1349167 0.13665149
000350 23 9f 03 be e6 60 f2 3d 51 2c ce 3d 90 a9 4b be
       -0.12853675 0.11834888 0.100670464 -0.19888902
000360 3b 6a aa bd 53 7f ce 3d ae ca 31 3e a4 31 0f 3e
       -0.08321043 0.10082879 0.17362472 0.1398378
000370 84 90 7e bc 99 cd 13 3e 5b ca 25 3e 93 9b 8c bd
       -0.015537385 0.14433898 0.16190474 -0.06865611
000380 66 fd f9 3c 45 f1 d4 3d 58 28 a6 3e b1 f5 c9 3d
       0.030516338 0.10397581 0.32452655 0.09861315
000390 c0 e6 21 3e f2 54 c2 3c 9e 6a ea 3d cb 4d 45 3e
       0.1581068 0.023722146 0.11446117 0.19267957
0003a0 f5 98 d6 3d 76 02 1b 3e 39 45 19 3e 6f ea d3 bd
       0.10478393 0.15137658 0.14967813 -0.10347449
0003b0 8c dd 89 3e bc d8 c3 3d bd d5 f1 3d 01 11 31 3e
       0.2692684 0.09562823 0.118083455 0.17291643
0003c0 64 ff 04 3e 7f 5d 0e 3d 36 cb a9 3e ef f8 a4 be
       0.12988049 0.034757134 0.3316285 -0.3222117
0003d0 d9 15 84 3e c5 88 99 be dc 0b 2d 3d 76 6d ed 3d
       0.25797918 -0.2998716 0.042247638 0.11593144
0003e0 d3 a7 c6 3d 33 47 50 3e 1c 58 1d 3e 6b 78 42 3e
       0.09699979 0.2033966 0.15365642 0.18991248
0003f0 b9 0a 4e 3e df 42 56 3e c7 38 e8 3d 34 6d 88 bd
       0.20121278 0.20923947 0.113389544 -0.06661454

hid6.bias f4 [25]
000000 f2 ea 1c 3c 85 44 d6 3d 10 c6 8c 3e 2f e4 09 be
       0.0095775 0.10462288 0.2749486 -0.13465951
000010 0a 72 94 bd b1 80 db bc 43 3d 72 3c cb 26 a4 bd
       -0.07248314 -0.026794763 0.014785114 -0.08015212
000020 48 b0 30 bc 79 e4 90 bb d4 47 d0 bd 01 d8 f8 3c
       -0.010784216 -0.0044217673 -0.1016995 0.030376436
000030 d7 b3 ba bd 70 cd 17 3c d6 82 66 3e 05 40 ff 3d
       -0.09116333 0.009265289 0.22510847 0.12463383
000040 19 a5 0c be 78 39 49 3d 87 ae e7 3d 8c 2d 53 bd
       -0.13734855 0.049127072 0.11312585 -0.05155711
000050 f6 35 8a 3d 90 80 04 be 32 72 0d be a4 3d c9 3e
       0.067485735 -0.12939668 -0.13813093 0.3930484
000060 a9 9f a8 3e
       0.3293431
