checkpoint/lstm_checkpoint.pt (torch, 764701 bytes, 66 tensors)

lstm.weight_ih_l0 f4 [160, 15]
-0.03502376 0.06042997 -0.23165385 -0.09938211 0.040071778 0.1455042 0.12255837 -0.013160384
0.12033832 -0.042712096 0.06655953 0.10572482 0.04630918 -0.13498549 -0.040254366 0.012728519
-0.11502581 0.09764043 0.20757201 0.14280222 -0.14821576 0.12601954 0.06439128 -0.100518465
-0.15018597 0.36575308 0.025069214 -0.061585847 -0.12914811 -0.21776873 0.08611581 0.0024539882
0.098579004 0.20148847 0.08683183 0.12857163 -0.016545327 0.055814963 -0.1296059 -0.18036054
0.26617098 -0.09962669 0.07220076 -0.16880423 0.13965374 -0.2179599 0.15701142 0.03535411
-0.1137634 -0.15355979 -0.015405699 0.025757078 0.053536262 -0.025030974 0.2161286 0.08758396
0.06826012 -0.08419674 0.02017097 -0.15004823 0.0134755485 0.1878248 -0.17760052 0.100156724
0.04072852 -0.037877314 -0.10924854 0.013518969 -0.2264021 0.25643897 -0.11817058 -0.07586769
0.015598886 -0.07219488 0.013876304 0.12356751 -0.15577021 -0.26618662 0.112696 0.12660657
0.069813654 0.020278115 0.19667524 -0.09807398 -0.12576535 0.027606219 0.024910659 0.014115225
-0.16646326 -0.14175849 0.13343047 -0.043071423 0.0017320447 -0.08481292 -0.10572067 -0.15035258
0.14664835 0.10007755 0.12972945 -0.002506915 0.16075855 -0.094061494 0.18804963 0.11495371
-0.068296306 -0.19823837 -0.19266711 0.055152766 0.19125867 -0.06118186 -0.03170285 -0.046796307
0.013598792 0.117816895 0.061512016 0.023055298 0.010684365 -0.108037554 0.12779333 -0.09635726
-0.055546336 -0.17584214 0.075866036 0.07930069 -0.0024368674 0.031107303 -0.08991122 -0.056792088
-0.026070138 -0.08709524 0.20639868 0.12661019 0.101221114 -0.15048467 0.09844506 -0.13477693
-0.017306242 -0.0770119 0.02945428 0.08209772 -0.24681132 0.113866225 -0.19491024 0.049518593
0.14631152 0.11278224 0.107734084 -0.11427832 -0.022578457 -0.1254058 -0.0848395 -0.038958818
0.011894901 -0.28922215 -0.14983007 0.018244026 -0.03418867 0.028804986 -0.047652006 -0.23082085
-0.33036122 -0.02888033 0.02797307 0.097502664 -0.20621961 0.108126104 -0.087794 -0.019436104
0.039088942 -0.15182172 -0.025702324 0.09711909 0.07926502 0.11623304 -0.16727452 -0.024431786
0.10634519 -0.10515591 -0.10200068 -0.19626506 -0.12843701 -0.07030377 -0.06500628 0.13149484
0.02740916 0.09032231 -0.21704513 0.065321006 -0.095471 -0.09153301 -0.20076941 0.01131089
-0.007885881 0.024455288 -0.07988941 -0.35600758 0.061552696 0.09357244 0.08289272 0.15199664
0.12806335 -0.076998286 0.09402222 -0.2011484 0.015677584 -0.009670183 -0.05417558 -0.0023278925
0.013021391 0.161654 -0.09149592 0.019439027 0.054491695 0.01551576 -0.13197784 -0.08260458
0.17106102 -0.08278477 -0.09028074 -0.105331756 -0.04850961 0.023006199 -0.07695068 0.11115376
0.077887714 -0.15155393 0.079532474 -0.07612896 0.10714942 0.0917667 -0.00052840204 0.10527177
-0.086784765 -0.053012818 0.106234804 0.15738942 -0.09592386 0.012513795 -0.02471102 0.12598073
-0.18279575 -0.027583353 -0.09473572 -0.1291139 0.013187829 0.2027764 0.08720155 0.028662568
-0.14448772 -0.0034899043 -0.1437635 -0.12064647 0.102898054 0.21613975 -0.18736617 -0.14102425
00000000: 1375 0fbd 6b85 773d ab36 6dbe d988 cbbd
00000010: 4e22 243d 0eff 143e e2ff fa3d a79e 57bc
00000020: f073 f63d e1f2 2ebd 5d50 883d 4186 d83d
00000030: b2ae 3d3d a339 0abe c3e1 24bd 478b 503c
00000040: a792 ebbd b5f7 c73d c28d 543e bf3a 123e
00000050: dfc5 17be 440b 013e 93df 833d a0dc cdbd
00000060: 5aca 19be fd43 bb3e f45d cd3c 7141 7cbd
00000070: 673f 04be c4fe 5ebe 7c5d b03d 17d3 203b
00000080: cae3 c93d fe52 4e3e e3d4 b13d 48a8 033e
00000090: 118a 87bc 3b9e 643d 69b7 04be 6fb0 38be
000000a0: 9047 883e 1409 ccbd fedd 933d 04db 2cbe
000000b0: 6401 0f3e e130 5fbe 9ac7 203e 79cf 103d
000000c0: c9fc e8bd c73e 1dbe 2f68 7cbc 8200 d33c
000000d0: d748 5b3d c20d cdbc d150 5d3e 385f b33d
000000e0: f6cb 8b3d 576f acbd 973d a53c 3ea6 19be
000000f0: 8cc8 5c3c 2555 403e e9dc 35be f81e cd3d
00000100: f3d2 263d 3e25 1bbd b3bd dfbd aa7e 5d3c
00000110: f4d5 67be f84b 833e 6b03 f2bd 8560 9bbd
00000120: 7892 7f3c e9da 93bd 7059 633c f610 fd3d
00000130: 3a82 1fbe 9d49 88be 29cd e63d 27a5 013e
00000140: 76fa 8e3d 4a1e a63c 3c65 493e 03db c8bd
00000150: a2c8 00be 7026 e23c 7011 cc3c 8b43 673c
00000160: 5875 2abe 2329 11be ffa1 083e a96b 30bd
00000170: c705 e33a 65b2 adbd 1484 d8bd 07f6 19be
00000180: fc2a 163e 75f5 cc3d ccd7 043e 0e4b 24bb
00000190: e49d 243e 50a3 c0bd 1590 403e da6c eb3d
000001a0: efde 8bbd 00ff 4abe 874a 45be dee7 613d
000001b0: 50d9 433e d499 7abd d9da 01bd 7cad 3fbd
000001c0: 78cd 5e3c fc49 f13d 06f4 7b3d 77de bc3c
000001d0: 7a0d 2f3c cb42 ddbd 41dc 023e f556 c5bd
000001e0: 8e84 63bd f60f 34be a75f 9b3d 6668 a23d
000001f0: dab3 1fbb bed4 fe3c 6023 b8bd d29e 68bd
00000200: 0b91 d5bc fd5e b2bd 2d5a 533e 1aa6 013e
00000210: 044d cf3d a718 1abe 909d c93d f702 0abe
00000220: d2c5 8dbc 6ab8 9dbd 1a4a f13c d922 a83d
00000230: 1bbc 7cbe b232 e93d 8d96 47be 02d4 4a3d
00000240: b0d2 153e 60fa e63d b0a3 dc3d c00a eabd
00000250: 75f6 b8bc 616a 00be 55c0 adbd 4893 1fbd
00000260: d5e2 423c ed14 94be 0e6d 19be 7f74 953c
00000270: 6b09 0cbd 6ff8 eb3c c02e 43bd 4d5c 6cbe
00000280: 1b25 a9be 7196 ecbc c827 e53c 7aaf c73d
00000290: 3c2b 53be 3871 dd3d 57cd b3bd 7738 9fbc
000002a0: ba1b 203d 2777 1bbe ae8d d2bc 60e6 c63d
000002b0: b355 a23d 970b ee3d 034a 2bbe 2b25 c8bc
000002c0: 82cb d93d fb5b d7bd bce5 d0bd b5f9 48be
000002d0: fe84 03be 6cfb 8fbd 0322 85bd 95a6 063e
000002e0: 2d89 e03c e7fa b83d 1441 5ebe 05c7 853d
000002f0: 4d86 c3bd a975 bbbd 7f96 4dbe 5051 393c
00000300: c833 01bc 7556 c83c 0f9d a3bd a046 b6be
00000310: ae1e 7c3d e8a2 bf3d a9c3 a93d 02a5 1b3e
00000320: 0a23 033e 47b1 9dbd b98e c03d d9f9 4dbe
00000330: 476e 803c b06f 1ebc 37e7 5dbd 8e8f 18bb
00000340: ac57 553c a088 253e 3762 bbbd 983e 9f3c
00000350: af32 5f3d d035 7e3c 3325 07be 972c a9bd
00000360: 9f2a 2f3e 108b a9bd 1ce5 b8bd 2db8 d7bd
00000370: 03b2 46bd 7f77 bc3c 5198 9dbd 95a4 e33d
00000380: 9883 9f3d f430 1bbe ece1 a23d 80e9 9bbd
00000390: 2871 db3d 2ef0 bb3d 7684 0aba ba98 d73d
000003a0: 36bc b1bd f823 59bd a291 d93d b12a 213e
000003b0: bb73 c4bd a906 4d3c c46e cabc 1801 013e
000003c0: cf2e 3bbe 7cf6 e1bc cd04 c2bd 6f36 04be
000003d0: c411 583c 9ea4 4f3e ba96 b23d c3cd ea3c
000003e0: 97f4 13be e1b6 64bb bd36 13be 7f15 f7bd
000003f0: 37bc d23d bd53 5d3e ebdc 3fbe a968 10be

lstm.weight_hh_l0 f4 [160, 40]
0.1087162 -0.09460994 0.19288085 -0.045873642 0.05042746 -0.027600186 -0.10515957 0.05050012
0.018226035 0.13918443 0.016680697 0.110780485 -0.025130669 0.0488022 -0.13479131 0.010867303
0.14947797 0.17100997 0.065369405 0.008625873 0.12103504 -0.056854688 0.11823638 -0.1592563
0.08049992 0.088994294 -0.09770696 0.07504281 -0.058075607 -0.054124836 0.07534567 0.0026077933
0.06903387 -0.04252631 0.27072632 -0.03304608 -0.08488744 -0.20254292 0.15755215 -0.17885318
0.0020395208 0.23366496 0.022265054 -0.15029252 0.12597446 -0.077962555 -0.12083193 0.05249034
-0.1157525 -0.28869677 -0.16967215 0.07246938 0.0013345733 0.19626375 0.0037825136 0.0054039345
0.061310597 -0.033232395 -0.025997821 -0.0974524 0.15936935 -0.14670122 0.06432307 -0.23173021
0.05553944 -0.13815977 -0.22698633 -0.1061372 0.041007828 -0.047211695 0.14627726 0.049363226
-0.07450553 0.14545812 0.061573155 0.17410849 -0.0090117445 -0.14597102 -0.0044237734 -0.032151166
0.13368031 0.066924706 0.07521165 -0.0658258 -0.26742044 -0.0040272763 -0.122993544 0.1509109
-0.061889388 0.06695216 0.12677194 0.052296083 0.03753947 0.122508004 -0.117213905 0.23218217
0.09491616 0.12607302 -0.14075314 -0.16121602 -0.10180905 0.18083003 -0.030586282 0.01752518
-0.054535445 0.034255996 0.15546791 -0.19078082 -0.16377662 -0.026628522 -0.15251213 -0.20671757
-0.025563013 0.18884322 0.08580232 0.03344394 -0.06266805 0.16131188 0.0059098047 0.012002678
0.12018814 0.08560175 0.08972071 -0.10259552 -0.0632627 -0.056327447 -0.16398081 -0.04975328
-0.13431275 0.18622985 0.09899047 -0.14454944 0.22688337 0.16301626 0.20818678 0.05639009
-0.06372992 -0.12564027 -0.04186411 0.07219261 0.027443478 0.03293057 0.0159794 -0.36923096
0.14709157 -0.15148914 -0.33464214 0.025612876 0.051549513 -0.058092196 0.0753981 0.122521564
0.1758331 0.099155165 0.17161292 -0.09140682 -0.029195866 -0.041268457 0.27402616 -0.15325654
0.06456656 -0.04328263 0.23143741 0.10033709 0.01946214 -0.014792216 -0.23722994 -0.045984533
0.1287813 0.07975455 0.14059953 0.12925902 0.0016773224 0.045611758 -0.011844419 -0.0828197
-0.037174843 -0.08325693 -0.1607667 -0.20614222 0.2691893 0.0819292 0.100966625 -0.037964705
0.027529461 -0.13451973 -0.1946603 0.039547108 0.13953589 0.0048535964 0.098251544 -0.057032928
0.016152758 0.26803666 -0.023827063 0.06911992 -0.15661891 -0.052463092 0.09900222 0.0064079794
0.071624935 0.0006723718 -0.012021963 -0.22172086 -0.04122872 -0.0016662331 -0.028970769 0.18666202
0.0456447 -0.13846685 0.19441535 0.06282762 -0.010428245 -0.19796325 0.0005431135 -0.017219836
0.11901822 -0.025163254 0.18315525 0.0010535894 0.20413455 0.013921131 -0.048032563 -0.09624487
-0.10673384 -0.10860362 0.07639971 -0.0047891256 0.06480823 -0.13299921 -0.21072601 -0.2625298
-0.078992546 -0.18202955 0.044510357 -0.061024066 0.17749572 0.16358182 -0.04270692 -0.29186887
0.00034203404 0.07336929 -0.21320528 -0.07100163 0.18023676 0.17772414 -0.24011047 0.13106322
-0.15159392 0.1061871 0.22086118 -0.12766969 0.1686957 0.021472784 0.27576473 -0.036489997
00000000: 99a6 de3d dbc2 c1bd 8f82 453e 00e6 3bbd
00000010: 068d 4e3d c919 e2bc e75d d7bd 37d9 4e3d
00000020: c44e 953c 5d86 0e3e f5a5 883c e1e0 e23d
00000030: d5de cdbc d1e4 473d bc06 0abe c60c 323c
00000040: c110 193e 3d1d 2f3e 65e0 853d 8953 0d3c
00000050: 38e1 f73d 76e0 68bd ea25 f23d 1514 23be
00000060: 24dd a43d a442 b63d 961a c8bd 0bb0 993d
00000070: b0e0 6dbd 01b2 5dbd d54e 9a3d 83e7 2a3b
00000080: a161 8d3d 1130 2ebd a49c 8a3e 545b 07bd
00000090: 77d9 adbd 6967 4fbe 5a55 213e 4a25 37be
000000a0: 7ba9 053b de45 6f3e 3465 b63c 48e6 19be
000000b0: 73ff 003e d5aa 9fbd bb76 f7bd 1c00 573d
000000c0: a60f edbd 10d0 93be 89be 2dbe d46a 943d
000000d0: d9ec ae3a 5df9 483e 0ce4 773b 7d13 b13b
000000e0: d220 7b3d b11e 08bd 62f9 d4bc 2095 c7bd
000000f0: b831 233e d838 16be d0bb 833d af4a 6dbe
00000100: 537d 633d c179 0dbe 1b6f 68be 765e d9bd
00000110: d3f7 273d 0d61 41bd b5c9 153e 1831 4a3d
00000120: 5b96 98bd f9f2 143e 2234 7c3d 7f49 323e
00000130: ffa5 13bc 6d79 15be 4df5 90bb f1b0 03bd
00000140: 7ee3 083e d20f 893d 9108 9a3d adcf 86bd
00000150: 55eb 88be 3ef7 83bb 0ae4 fbbd 6388 1a3e
00000160: ba7f 7dbd 371e 893d 81d0 013e 6b34 563d
00000170: fdc2 193d 7ae5 fa3d d80d f0bd 2ac1 6d3e
00000180: 6763 c23d 4919 013e 9721 10be d015 25be
00000190: 4381 d0bd 822b 393e 1590 fabc f790 8f3c
000001a0: 8f60 5fbd 0450 0c3d fb32 1f3e 0c5c 43be
000001b0: 0fb5 27be 0f24 dabc 242c 1cbe c5ad 53be
000001c0: 8669 d1bc 1e60 413e 20b9 af3d 83fc 083d
000001d0: 1b58 80bd f12e 253e 09a7 c13b e1a6 443c
000001e0: 3325 f63d f84f af3d 7ebf b73d 9a1d d2bd
000001f0: e08f 81bd 9cb7 66bd 96ea 27be 18ca 4bbd
00000200: 4889 09be 0ab3 3e3e 84bb ca3d c504 14be
00000210: 1d54 683e bced 263e ea2e 553e 4cf9 663d
00000220: d584 82bd d8a7 00be b379 2bbd b8d9 933d
00000230: 25d1 e03c 35e2 063d 3be7 823c d70b bdbe
00000240: 2c9f 163e f81f 1bbe 3756 abbe 18d2 d13c
00000250: 9525 533d 15f2 6dbd 526a 9a3d 96ec fa3d
00000260: 980d 343e dd11 cb3d 4cbb 2f3e 8033 bbbd
00000270: 2b2c efbc 1d09 29bd 284d 8c3e 48ef 1cbe
00000280: 793b 843d 2149 31bd eefd 6c3e 887d cd3d
00000290: 116f 9f3c 0d5b 72bc 68ec 72be 475a 3cbd
000002a0: 3fdf 033e 5a56 a33d 53f9 0f3e 7a5c 043e
000002b0: 9ad9 db3a 65d3 3a3d 180f 42bc 609d a9bd
000002c0: a644 18bd 9c82 aabd 07a0 24be f216 53be
000002d0: 2ed3 893e 7fca a73d 97c7 ce3d e180 1bbd
000002e0: 7785 e13c 8abf 09be 0855 47be 26fc 213d
000002f0: 7fe2 0e3e eb0a 9f3b 1b38 c93d 5c9b 69bd
00000300: ca52 843c 1a3c 893e f930 c3bc bf8e 8d3d
00000310: b560 20be 8ae3 56bd adc1 ca3d 07fa d13b
00000320: 18b0 923d 1c42 303a c4f7 44bc cb0a 63be
00000330: 72df 28bd 8165 daba 1b54 edbc 5424 3f3e
00000340: f0f5 3a3d 41ca 0dbe d114 473e c4ab 803d
00000350: 3bdb 2abc e1b6 4abe bb5f 0e3a 9d10 8dbc
00000360: d3bf f33d 2b23 cebc 0d8d 3b3e 9818 8a3a
00000370: a608 513e 7515 643c cbbd 44bd 081c c5bd
00000380: 4697 dabd 936b debd 7377 9c3d 19ee 9cbb
00000390: 2dba 843d f230 08be 8fc8 57be 4e6a 86be
000003a0: d8c6 a1bd f465 3abe 7e50 363d 5ff4 79bd
000003b0: 70c1 353e fe81 273e 74ed 2ebd d66f 95be
000003c0: 0853 b339 a342 963d 7c52 5abe 4d69 91bd
000003d0: fc8f 383e 51fd 353e 85df 75be 7035 063e
000003e0: 703b 1bbe 9f78 d93d 6f29 623e d8bb 02be
000003f0: 91be 2c3e b1e7 af3c 0931 8d3e 8976 15bd

lstm.bias_ih_l0 f4 [160]
0.035392985 0.05349167 0.17009957 0.013993569 0.08392801 -0.08180934 -0.034580126 0.16047558
0.051800046 0.12709011 0.056685254 0.17975867 0.13366354 -0.043087177 -0.04609035 0.05074309
0.033383172 0.07790235 0.21396913 0.2547507 -0.055627935 -0.14345488 0.17025426 0.07502794
0.14091483 0.15002789 0.07277399 -0.015565162 0.04982198 0.122886285 -0.00121148 0.055254083
0.13675083 0.1553743 0.26545057 -0.041863907 0.12435969 0.23023477 0.021950625 0.1662762
0.119485594 0.12561682 0.10833081 0.19467281 0.10444032 0.12306569 0.092490464 0.17495582
0.25258148 0.06638966 0.18784453 0.030410375 0.04561728 0.07285337 0.16468306 0.13091429
0.04836754 0.09006748 0.13040426 0.115430854 0.21908917 0.1761833 0.14481962 -0.05881549
0.17643663 0.13322704 -0.028796457 0.08282658 0.096080616 -0.016673336 -0.041592743 -0.007328946
0.17746198 0.2201929 0.09691566 -0.0120372325 0.18081632 0.03204203 -0.019981267 0.34426174
0.061449517 0.07492278 0.04933864 0.08119353 -0.15203227 -0.20188807 -0.1083303 0.02884672
-0.18528886 -0.09544431 0.06114136 0.0925101 -0.14174317 0.17821708 -0.04764318 -0.059266638
0.005596239 -0.11561353 0.080117695 -0.03990207 0.0379026 -0.03212605 0.09818837 -0.12848689
-0.09210321 -0.106655635 -0.06248325 -0.14467342 0.07676083 0.06741184 -0.101397105 0.04821334
0.04674972 0.13374738 0.19683887 0.14990193 -0.07003131 -0.05634228 0.06347137 0.047955297
0.003859218 0.26091793 0.21764682 0.01852409 0.2865583 0.13823275 0.1470832 0.2037091
0.16415058 0.017386451 0.13370395 0.2191291 0.055311937 0.0043138755 0.25522634 0.17302679
0.25578386 0.11561663 0.060440198 0.22673887 0.07318411 0.1922041 0.06480298 0.11478846
0.01855617 0.018071923 0.22414887 0.03043418 0.07178587 0.13363977 0.15678474 0.17488441
0.07205015 0.2439722 0.022025608 0.22305076 0.2033013 0.058201976 0.028313419 0.18102203
00000000: 3cf8 103d 151a 5b3d 952e 2e3e 4845 653c
00000010: 73e2 ab3d a88b a7bd e4a3 0dbd b653 243e
00000020: 492c 543d e923 023e cc2e 683d a812 383e
00000030: 18df 083e 2e7c 30bd 3cc9 3cbd fdd7 4f3d
00000040: cbbc 083d 448b 9f3d b91a 5b3e af6e 823e
00000050: 1eda 63bd d6e5 12be 2257 2e3e 40a8 993d
00000060: fa4b 103e e9a0 193e 880a 953d 0505 7fbc
00000070: 2212 4c3d ceab fb3d 86ca 9eba 1b52 623d
00000080: 6908 0c3e 711a 1f3e 23e9 873e 7d79 2bbd
00000090: 4bb0 fe3d aac2 6b3e ccd1 b33c 4f44 2a3e
000000a0: ddb4 f43d b2a1 003e 8bdc dd3d 4f58 473e
000000b0: cee4 d53d dd09 fc3d a46b bd3d 9e27 333e
000000c0: 5c52 813e 4df7 873d 515a 403e 2e1f f93c
000000d0: 2fd9 3a3d 2634 953d ada2 283e 650e 063e
000000e0: 0b1d 463d 4d75 b83d b288 053e 0367 ec3d
000000f0: e958 603e 6569 343e 984b 143e 83e8 70bd
00000100: ceab 343e ab6c 083e 8ce6 ebbc fba0 a93d
00000110: eac5 c43d 8596 88bc 275d 2abd a827 f0bb
00000120: 98b8 353e 3f7a 613e b87b c63d d037 45bc
00000130: ea27 393e 813e 033d c1af a3bc 1343 b03e
00000140: 7db2 7b3d 1d71 993d 5017 4a3d cb48 a63d
00000150: 59ae 1bbe bfbb 4ebe 47dc ddbd f54f ec3c
00000160: 5dbc 3dbe 4e78 c3bd 5d6f 7a3d ef75 bd3d
00000170: 1f25 11be 8a7e 363e 7f25 43bd 93c1 72bd
00000180: a860 b73b c9c6 ecbd bf14 a43d 5a70 23bd
00000190: c23f 1b3d 9b96 03bd fc16 c93d 1192 03be
000001a0: 9ca0 bcbd 456e dabd 70ee 7fbd 4525 14be
000001b0: c834 9d3d 380f 8a3d 49a9 cfbd 5a7b 453d
000001c0: a27c 3f3d 13f5 083e 2190 493e e47f 193e
000001d0: 936c 8fbd 2ac7 66bd 47fd 813d c66c 443d
000001e0: efea 7c3b 0997 853e cfde 5e3e d5bf 973c
000001f0: c5b7 923e e38c 0d3e fa9c 163e 1e99 503e
00000200: 1717 283e 086e 8e3c b0e9 083e 6163 603e
00000210: c58e 623d 695b 8d3b 07ad 823e ef2d 313e
00000220: 1af6 823e 69c8 ec3d 2490 773d 3c2e 683e
00000230: 8de1 953d 27d1 443e 6db7 843d 3616 eb3d
00000240: 1c03 983c 920b 943c 4887 653e 1a51 f93c
00000250: 7804 933d ddd8 083e 2e8c 203e e614 333e
00000260: 078f 933d d9d3 793e 0c6f b43c 6b67 643e
00000270: 372e 503e 3265 6e3d 8bf1 e73c d75d 393e

lstm.bias_hh_l0 f4 [160]
0.079850614 0.020398041 -0.08531056 0.028695904 0.23791923 0.10451951 0.09776769 0.20235543
0.16189487 0.11993743 0.03549425 0.078752875 0.0541958 -0.09114091 0.04498387 -0.10704813
0.008977456 0.094585665 -0.021858081 0.019916764 0.0049730046 0.011381439 0.12919378 0.2139913
-0.06669881 0.09823263 0.29079956 0.08712946 0.15223663 0.16867082 0.12660593 0.039182056
0.011486634 0.11439871 0.18424502 0.18913841 0.04403423 0.16566986 0.04837928 0.22764131
0.036914293 0.04586133 -0.014879622 0.038486496 0.24753799 0.009884466 0.104139976 0.051024016
0.05416056 0.23394857 0.097746134 0.03803648 0.18137194 -0.09844044 0.20453972 0.0107684545
0.16118743 -0.0429798 0.23737463 0.18236378 0.12085493 -0.09657616 0.091333225 0.18297198
0.08185862 0.15555595 -0.02744697 0.0334092 0.14617495 0.18013349 0.07712756 0.10843617
0.038261086 0.32434863 0.13566644 -0.019935057 0.071145415 0.20854582 0.15642352 0.28389865
0.026395379 0.10646974 0.14931023 -0.02494495 0.056414157 -0.21633689 0.009272965 0.11371973
0.04760614 -0.023976335 -0.110456996 0.15121709 0.03437878 -0.0054642535 -0.07574973 -0.13663694
0.097253 0.09477498 -0.02468807 -0.2055921 -0.0326556 0.07101136 -0.16858032 0.009883559
0.041464668 -0.18691166 -0.16367815 -0.06236043 0.18063316 -0.13083936 0.15075263 0.011141406
-0.11297038 0.05198628 0.18117474 -0.007224932 0.041107126 -0.105824836 0.062564835 -0.009979426
0.0933141 0.21502726 0.23517127 -0.04089815 0.0020939645 0.076342076 0.09417747 0.032487385
0.14913999 0.24264716 0.1197998 0.27881613 0.1336385 -0.033869423 0.06547408 -0.031527683
0.1790148 -0.0020580308 0.09935906 0.16047058 0.14335382 0.12330096 0.15966487 -0.0066650454
-0.022015754 0.14507845 0.08989591 0.24997193 -0.014297449 0.26279905 0.27887678 0.105787076
0.026252236 0.09027322 0.031068798 0.0248804 -0.063531026 0.1618143 0.19674036 0.28753886
00000000: b888 a33d cb19 a73c 4eb7 aebd ac13 eb3c
00000010: 19a1 733e 530e d63d 6d3a c83d 4336 4f3e
00000020: c5c7 253e c1a1 f53d 6b62 113d 3049 a13d
00000030: 6afc 5d3d 16a8 babd 0241 383d 0d3c dbbd
00000040: 2e16 133c 21b6 c13d b80f b3bc 7b28 a33c
00000050: 96f4 a23b 3779 3a3c 604b 043e 8920 5b3e
00000060: 6399 88bd 302e c93d aee3 943e ee70 b23d
00000070: ebe3 1b3e 0bb8 2c3e fca4 013e 5d7d 203d
00000080: 6f32 3c3c df49 ea3d baaa 3c3e 80ad 413e
00000090: 3d5d 343d 5ca5 293e 5a29 463d ce1a 693e
000000a0: 7133 173d 17d9 3b3d a8c9 73bc 04a4 1d3d
000000b0: 997a 7d3e 75f2 213c 5747 d53d 8ffe 503d
000000c0: 77d7 5d3d 3790 6f3e 202f c83d 24cc 1b3d
000000d0: 91b9 393e 249b c9bd dc72 513e 2c6e 303c
000000e0: 510e 253e 960b 30bd 5612 733e 92bd 3a3e
000000f0: ca82 f73d b9c9 c5bd ea0c bb3d 025d 3b3e
00000100: 7ea5 a73d 0f4a 1f3e 78d8 e0bc 16d8 083d
00000110: e3ae 153e ea74 383e 0ef5 9d3d c813 de3d
00000120: a8b7 1c3d 0611 a63e 25ec 0a3e d84e a3bc
00000130: b0b4 913d 098d 553e 7d2d 203e 2a5b 913e
00000140: 1f3b d83c cf0c da3d c8e4 183e 5a59 ccbc
00000150: 8812 673d 6b87 5dbe a2ed 173c e4e5 e83d
00000160: a8fe 423d 056a c4bc 4737 e2bd a7d8 1a3e
00000170: c3d0 0c3d 7b0d b3bb ad22 9bbd 8eea 0bbe
00000180: 952c c73d 6219 c23d a33e cabc bc86 52be
00000190: e1c1 05bd 676e 913d 52a0 2cbe a7ee 213c
000001a0: dbd6 293d c565 3fbe 3f9b 27be a66d 7fbd
000001b0: e6f7 383e c1fa 05be e65e 1a3e 728a 363c
000001c0: 045d e7bd 91ef 543d df85 393e 1fbf ecbb
000001d0: f25f 283d b1ba d8bd fe21 803d bf80 23bc
000001e0: 761b bf3d 1b30 5c3e bdd0 703e d284 27bd
000001f0: e53a 093b 3c59 9c3d 1ee0 c03d 7e11 053d
00000200: 27b8 183e 7f78 783e 9959 f53d fdc0 8e3e
00000210: 88d8 083e aaba 0abd 4617 863d 2c23 01bd
00000220: a84f 373e 07e0 06bb c37c cb3d 6652 243e
00000230: 58cb 123e 3785 fc3d 307f 233e 7466 dabb
00000240: 625a b4bc 728f 143e 591b b83d a4f8 7f3e
00000250: d93f 6abc 998d 863e f0c8 8e3e e5a6 d83d
00000260: ee0e d73c 2ae1 b83d fe83 fe3c fbd1 cb3c
00000270: 8e1c 82bd a6b2 253e 4e76 493e 4b38 933e

lstm.weight_ih_l1 f4 [160, 40]
0.12409587 -0.06146703 -0.10205225 0.061386496 0.05063942 -0.07837822 0.020976603 -0.0618748
-0.14641283 -0.13204385 0.040412754 -0.1276661 0.043559775 0.048310563 0.016698614 -0.033697225
-0.08787754 0.04715541 -0.055560507 0.14456667 0.07657145 -0.055479474 0.015383437 -0.11537168
-0.14074768 0.08378397 -0.020606786 0.014231533 0.1374052 0.07392876 0.14999478 0.10597877
0.029535592 -0.004456535 -0.004009545 0.054085717 -0.10004975 0.058847353 -0.08419365 -0.15699589
-0.09977381 -0.07491291 0.07603842 -0.06217649 0.14660926 0.1572781 0.09867297 -0.10224263
0.007806599 0.021618456 0.100982174 0.12098463 -0.14278033 0.12407105 -0.05441954 -0.02897954
-0.10112962 -0.14122087 0.13314028 0.06813592 -0.0760438 0.11654754 0.13134165 0.11740182
0.14148848 -0.018336803 0.03516087 -0.13623194 0.07836807 0.055508554 0.011033878 0.15250508
-0.07780155 -0.09288591 -0.06518583 0.0974635 0.023253664 -0.14397942 -0.08937514 0.09378879
0.11683442 -0.0043775737 0.037496477 -0.09035951 -0.14665765 -0.12622035 0.058046713 -0.12797233
-0.114753336 0.13782622 -0.081501044 -0.11690909 0.048173815 -0.024727434 0.009952709 0.12978195
0.15145235 0.07345854 -0.073587954 -0.10586983 -0.07425953 -0.040837243 0.02899076 -0.13498892
0.029636115 0.060638115 0.02430585 -0.020315751 0.039080143 0.14036317 0.024389386 -0.0643465
-0.023174196 0.14477433 0.07947248 -0.10335541 -0.029566586 0.07791579 0.02307941 0.15285729
0.14639132 -0.07553177 0.0967118 -0.034713544 0.083174676 0.042869076 0.05471976 -0.020047382
0.09907921 0.10321675 -0.076285094 -0.049140207 0.07434271 0.10069959 0.091910675 0.117422745
-0.13358916 -0.15265447 0.109715566 -0.09147703 -0.02399078 0.026801094 0.04617782 0.06346896
0.088301435 0.13477446 -0.0818573 0.07447024 0.017604694 -0.105589 0.028054208 -0.10948308
0.12518169 -0.124343954 0.11780889 0.10072832 0.12993877 0.14200346 -0.00963451 0.043890163
0.12996702 -0.15260084 0.00930354 0.12461375 0.02688387 -0.06671579 0.030194476 0.1420983
-0.1178905 -0.07458282 0.12858035 -0.033166565 -0.073470995 -0.025084883 -0.13816546 0.07806711
-0.06640892 -0.051117748 0.06076084 -0.11776299 0.036464587 0.0069228113 0.021977022 0.05389364
0.13033007 0.15093915 -0.01882714 -0.11068014 -0.018088654 0.011476651 0.12892748 0.10239376
0.059518367 0.14373182 0.054667816 0.12086351 -0.13922241 -0.12086457 -0.04209654 -0.038821436
-0.08641 -0.1006275 -0.036173433 0.05959113 0.046430558 -0.023676723 -0.05587352 -0.0356258
0.012538716 -0.14367644 -0.088512756 0.14314406 -0.15323707 -0.026367277 0.06965427 0.025294185
0.13452117 0.08511029 -0.061186127 0.13551079 -0.12405913 -0.09018268 -0.13159727 -0.018873826
0.0545007 -0.15756387 -0.12132303 -0.14198336 -0.007973865 0.06784487 0.12200858 0.031033486
0.009204283 0.15290953 0.123855606 -0.067397885 0.0531452 -0.014725238 -0.11949695 0.009693965
-0.013157472 0.042081818 0.02974701 -0.15005745 0.017714754 0.13799296 -0.02364555 -0.0972943
0.027216747 -0.0010064244 0.034622043 -0.07807304 -0.15619145 -0.122755505 -0.09274151 -0.025298536
00000000: fa25 fe3d dac4 7bbd c500 d1bd 6870 7b3d
00000010: 486b 4f3d c384 a0bd 20d7 ab3c 6e70 7dbd
00000020: 3fed 15be 8136 07be d887 253d e7ba 02be
00000030: bc6b 323d 4ce1 453d 88cb 883c 1a06 0abd
00000040: 24f9 b3bd 0826 413d 6a93 63bd 4909 143e
00000050: 7ed1 9c3d 723e 63bd d00a 7c3c fd47 ecbd
00000060: 2920 10be ee96 ab3d 90cf a8bc 602b 693c
00000070: f3b3 0c3e f667 973d 3b98 193e 660b d93d
00000080: a0f4 f13c 2008 92bb 8062 83bb fc88 5d3d
00000090: e2e6 ccbd ec09 713d b86d acbd 88c3 20be
000000a0: 3656 ccbd f16b 99bd 08ba 9b3d c6ac 7ebd
000000b0: bd20 163e 830d 213e 0e15 ca3d 9664 d1bd
000000c0: 80ce ff3b 3019 b13c becf ce3d cac6 f73d
000000d0: 0235 12be f618 fe3d 06e7 5ebd 8066 edbc
000000e0: 0c1d cfbd 349c 10be ed55 083e d88a 8b3d
000000f0: dabc 9bbd 7ab0 ee3d 6d7e 063e 5e70 f03d
00000100: 5be2 103e 1037 96bc d804 103d 6380 0bbe
00000110: 707f a03d f05c 633d 70c7 343c 4b2a 1c3e
00000120: 6b56 9fbd f83a bebd 2680 85bd f29a c73d
00000130: 787e be3c 576f 13be 500a b7bd 5614 c03d
00000140: e246 ef3d c071 8fbb e895 193d 680e b9bd
00000150: 6c2d 16be e83f 01be 64c2 6d3d 2e0b 03be
00000160: cc03 ebbd 5122 0d3e 05ea a6bd 086e efbd
00000170: e851 453d 3091 cabc b010 233c 8fe5 043e
00000180: 5316 1b3e 6e71 963d 48b5 96bd 48d2 d8bd
00000190: 6115 98bd f444 27bd 087e ed3c 893a 0abe
000001a0: 70c7 f23c ac5f 783d 101d c73c 386d a6bc
000001b0: 8012 203d 5dbb 0f3e 40cc c73c 19c8 83bd
000001c0: d0d7 bdbc b93f 143e 78c2 a23d 00ac d3bd
000001d0: a035 f2bc 5092 9f3d 0811 bd3c 9f86 1c3e
000001e0: 9be7 153e 67b0 9abd d610 c63d ca2f 0ebd
000001f0: 7c57 aa3d 7c97 2f3d d421 603d 683a a4bc
00000200: 0aea ca3d 4e63 d33d 5c3b 9cbd 3e47 49bd
00000210: fe40 983d 963b ce3d aa3b bc3d 567b f03d
00000220: 99cb 08be 7451 1cbe 8eb2 e03d 4f58 bbbd
00000230: 5088 c4bc f88d db3c f424 3d3d 04fc 813d
00000240: 62d7 b43d 5102 0a3e cda4 a7bd da83 983d
00000250: b837 903c 0c3f d8bd f0d1 e53c aa38 e0bd
00000260: a12f 003e 0ba8 febd ca45 f13d a64a ce3d
00000270: ab0e 053e 5b69 113e 10da 1dbc 2cc6 333d
00000280: 1316 053e 6543 1cbe e06d 183c 7e35 ff3d
00000290: 903b dc3c 4aa2 88bd 685a f73c 3782 113e
000002a0: 9370 f1bd e1be 98bd 91aa 033e aad9 07bd
000002b0: f677 96bd d07e cdbc 3f7b 0dbe a6e1 9f3d
000002c0: 6601 88bd d860 51bd 5ce0 783d b92d f1bd
000002d0: e45b 153d c0d8 e23b 2809 b43c 94bf 5c3d
000002e0: 3f75 053e cb8f 1a3e 603b 9abc 45ac e2bd
000002f0: a82e 94bc 9008 3c3c 9105 043e d2b3 d13d
00000300: 88c9 733d 6f2e 133e 5ceb 5f3d 4a87 f73d
00000310: 5290 0ebe d887 f7bd 6c6d 2cbd 3a03 1fbd
00000320: baf7 b0bd ca15 cebd 982a 14bd d415 743d
00000330: f82d 3e3d b0f5 c1bc a2db 64bd 5cec 11bd
00000340: 306f 4d3c eb1f 13be 2d46 b5bd 5b94 123e
00000350: 2eea 1cbe 3000 d8bc e6a6 8e3d c035 cf3c
00000360: ebbf 093e 4e4e ae3d 4e9e 7abd 57c3 0a3e
00000370: b712 febd b2b1 b8bd 6fc1 06be 489d 9abc
00000380: 203c 5f3d 6c58 21be 3578 f8bd 1664 11be
00000390: d0a4 02bc 40f2 8a3d a2df f93d f039 fe3c
000003a0: 90cd 163c 5194 1c3e 02a8 fd3d e707 8abd
000003b0: c8ae 593d 2042 71bc d1ba f4bd 70d3 1e3c
000003c0: 7092 57bc fc5d 2c3d 00b0 f33c a9a8 19be
000003d0: 881e 913c 074e 0d3e 50b4 c1bc 3c42 c7bd
000003e0: a8f5 de3c 00ea 83ba d8cf 0d3d c2e4 9fbd
000003f0: a7f0 1fbe 3d67 fbbd 43ef bdbd e03e cfbc

lstm.weight_hh_l1 f4 [160, 40]
-0.13682693 0.013351828 0.14629407 0.003574714 0.027318269 0.005562663 -0.088071965 -0.016320199
-0.08849055 -0.065379575 -0.08495151 -0.053572252 0.05040577 -0.08398509 -0.10756452 -0.14613868
0.04421486 0.14504488 0.1366138 0.15312 0.07633196 0.040549442 0.034854725 0.07601276
-0.15703736 0.023858711 0.13068669 0.029818594 -0.115142934 0.13022478 -0.1322621 0.13041873
-0.09164789 -0.084918074 -0.055946678 -0.027958035 0.12603469 -0.056625977 -0.14366853 -0.020054981
0.029269978 0.1549462 -0.038108468 0.080044195 0.11767785 -0.056686558 0.14790471 -0.030775711
0.04308565 -0.016511858 -0.028003663 -0.05594313 0.0664805 -0.093633614 0.018565387 0.012373254
0.09084228 0.102925256 0.10621841 -0.043076895 0.11800228 -0.008706167 0.014592245 0.007382974
0.046837226 -0.14236413 -0.14813198 0.029127419 0.12331773 0.031143948 0.12134452 -0.06022562
0.042230174 0.07784146 -0.0063807517 -0.107115656 0.14237092 -0.12113622 -0.13032548 -0.017272145
-0.14395587 0.15538563 -0.018150464 0.07133186 0.13294984 0.15092985 0.04242575 0.09483527
0.078624755 0.12109415 0.048485577 -0.04762911 -0.1229984 0.12596266 -0.047019772 0.08640292
0.112855926 0.034353614 0.0643698 -0.15668234 0.09710081 -0.12165791 -0.005889848 -0.118855305
-0.13804172 -0.10379616 0.12908591 -0.0635702 0.13586779 0.0073983073 -0.021835536 0.08407059
0.074875385 -0.089001976 -0.07971472 -0.08832081 0.11053206 0.10473101 -0.11102925 0.07258372
0.1347643 -0.047342494 0.07918504 -0.0690167 0.09031972 0.03804016 0.040603414 -0.00093753636
-0.006990403 0.034566343 -0.08168714 -0.027625352 -0.09809893 0.13183285 -0.12861603 0.105259314
-0.09244336 0.05843745 0.12521808 -0.0072191954 0.121334925 0.079138294 -0.0015294105 -0.0101920515
-0.1080631 0.13051735 0.0405062 -0.096524134 0.08144474 -0.060170904 -0.061880834 -0.01789923
-0.11726962 0.13871498 -0.06880013 -0.04918416 -0.122512996 0.14582218 -0.10822126 0.046139896
0.06744097 -0.12685287 -0.154386 -0.0039609224 0.07695909 0.014922172 0.15293543 0.044058293
0.09315045 0.03645301 0.11319752 -0.05065622 0.06319916 -0.06645342 -0.05828549 -0.13994348
0.1520425 0.15357514 0.091516614 -0.08893261 0.12203692 0.11102827 -0.023595244 0.05142586
-0.056017548 0.0045173764 -0.013743371 0.029644832 0.082496 -0.07072795 0.078498885 -0.034329712
-0.107162096 0.1396596 0.055664077 0.05124715 0.030794784 -0.11983826 0.100665525 -0.02294214
0.060115844 -0.077933356 -0.030082956 0.14674212 0.1363749 -0.14414328 -0.0069982708 -0.02315253
0.13769718 0.062307283 -0.11300372 0.045804262 -0.14146312 -0.12739171 -0.08401136 0.07053411
0.1475931 -0.11247998 -0.1046478 0.034201443 0.15128456 0.14057495 0.05541435 0.08460601
0.06487806 -0.11386447 0.04624656 0.045337513 0.033079386 0.12657233 -0.08992711 0.15339337
0.012906775 0.09506337 -0.08320261 -0.136159 0.1385261 -0.033527404 -0.10197906 0.14111309
-0.15102457 -0.12599531 -0.09910466 -0.12896773 0.0036589056 -0.022454306 -0.10516846 0.08305855
0.10123257 -0.11947714 -0.007322505 0.15009002 0.0068131834 0.14832287 0.11723699 0.06861329
00000000: 5c1c 0cbe a0c1 5a3c 1dce 153e c045 6a3b
00000010: 90ca df3c 0047 b63b 135f b4bd f0b1 85bc
00000020: 893a b5bd bae5 85bd 0ffb adbd 946e 5bbd
00000030: 4876 4e3d 6000 acbd c94a dcbd 61a5 15be
00000040: a41a 353d a586 143e 7de4 0b3e 7dcb 1c3e
00000050: ee53 9c3d 2c17 263d d4c3 0e3d 94ac 9b3d
00000060: 67ce 20be 5873 c33c bbd2 053e 2046 f43c
00000070: 0fd0 ebbd a559 053e b76f 07be 7d8c 053e
00000080: e4b1 bbbd 87e9 adbd 5828 65bd 4008 e5bc
00000090: 3d0f 013e a4f0 67bd d81d 13be 584a a4bc
000000a0: 98c7 ef3c 37aa 1e3e a017 1cbd 36ee a33d
000000b0: 1601 f13d 2a30 68bd 5574 173e 581d fcbc
000000c0: 947a 303d e043 87bc f067 e5bc a024 65bd
000000d0: ee26 883d fbc2 bfbd 7016 983c 30b9 4a3c
000000e0: 840b ba3d 7aca d23d 0a89 d93d 6671 30bd
000000f0: 2eab f13d 50a4 0ebc 5014 6f3c e0ec f13b
00000100: 64d8 3f3d e7c7 11be e9af 17be a09c ee3c
00000110: 028e fc3d 9821 ff3c 7a83 f83d 24af 76bd
00000120: 8cf9 2c3d 586b 9f3d a015 d1bb 745f dbbd
00000130: afc9 113e 4416 f8bd 0b74 05be 507e 8dbc
00000140: 2b69 13be 691d 1f3e 48b0 94bc 7016 923d
00000150: 0124 083e 5b8d 1a3e a0c6 2d3d fe38 c23d
00000160: 0406 a13d 3600 f83d d098 463d be16 43bd
00000170: 96e6 fbbd 5bfc 003e ce97 40bd 04f4 b03d
00000180: 0221 e73d 60b6 0c3d 50d4 833d 5671 20be
00000190: cadc c63d c827 f9bd a0ff c0bb 696a f3bd
000001a0: cf5a 0dbe 1593 d4bd 192f 043e 1831 82bd
000001b0: ed20 0b3e 806d f23b 70e0 b2bc 342d ac3d
000001c0: 4458 993d ab46 b6bd 7941 a3bd 8ae1 b4bd
000001d0: a25e e23d 367d d63d 4e63 e3bd c6a6 943d
000001e0: a7ff 093e 34ea 41bd c42b a23d a158 8dbd
000001f0: 8cf9 b83d 00d0 1b3d c44f 263d 00c5 75ba
00000200: c00f e5bb 7095 0d3d 964b a7bd 904e e2bc
00000210: 18e8 c8bd 31ff 063e ecb3 03be 3292 d73d
00000220: f252 bdbd 1c5c 6f3d 2b39 003e 008f ecbb
00000230: 727e f83d 4213 a23d 8076 c8ba 90fc 26bc
00000240: 3050 ddbd 57a6 053e d4e9 253d 72ae c5bd
00000250: 80cc a63d c475 76bd c276 7dbd 68a1 92bc
00000260: 0e2b f0bd 4d0b 0e3e 15e7 8cbd 5475 49bd
00000270: 18e8 fabd 6952 153e 1ca3 ddbd 30fd 3c3d
00000280: 7e1e 8a3d b8e5 01be 5d17 1ebe a0ca 81bb
00000290: ba9c 9d3d 207c 743c 1b9b 1c3e 7876 343d
000002a0: aac5 be3d c04f 153d 1ad4 e73d e67c 4fbd
000002b0: 906e 813d bb18 88bd c4bc 6ebd 584d 0fbe
000002c0: 07b1 1b3e cd42 1d3e 106d bb3d 4d22 b6bd
000002d0: 7eee f93d ca62 e33d d04a c1bc eca3 523d
000002e0: a872 65bd 8006 943b e02b 61bc b8d9 f23c
000002f0: aaf3 a83d d1d9 90bd 06c4 a03d 509d 0cbd
00000300: cd77 dbbd ed02 0f3e 0400 643d 88e8 513d
00000310: 5845 fc3c c36d f5bd ba29 ce3d 28f1 bbbc
00000320: 083c 763d 869b 9fbd 8870 f6bc 9143 163e
00000330: dda5 0b3e 4c9a 13be c051 e5bb 60aa bdbc
00000340: 7d00 0d3e ec35 7f3d 7f6e e7bd 409d 3b3d
00000350: b5db 10be f972 02be 260e acbd 3074 903d
00000360: a522 173e e75b e6bd 9651 d6bd d016 0c3d
00000370: 57ea 1a3e e1f2 0f3e 28fa 623d ea45 ad3d
00000380: cade 843d c631 e9bd 086d 3d3d d4b3 393d
00000390: 407e 073d 2d9c 013e b42b b8bd 2713 1d3e
000003a0: f076 533c 96b0 c23d 2166 aabd 446d 0bbe
000003b0: c9d9 0d3e 0854 09bd 66da d0bd f37f 103e
000003c0: 2fa6 1abe ea04 01be 62f7 cabd 1e10 04be
000003d0: 40ca 6f3b 18f2 b7bc 9062 d7bd 9a1a aa3d
000003e0: 0653 cf3d 6eb0 f4bd a0f1 efbb 33b1 193e
000003f0: 2041 df3b f3e1 173e f219 f03d 2085 8c3d

lstm.bias_ih_l1 f4 [160]
0.13463421 -0.018883795 0.11048098 0.02314189 0.11963774 -0.08836487 0.04900819 0.0007407665
-0.09243748 0.0059038103 -0.040418692 0.09692086 -0.0027930886 -0.11113219 0.1165763 0.05913657
-0.14834286 -0.058522172 -0.10866924 -0.116132185 -0.13931142 -0.0012897402 -0.010645017 -0.06863195
-0.1032727 0.006450668 -0.052664675 -0.13083571 -0.0491606 -0.12791094 0.15459858 -0.11079532
-0.07711958 -0.15617493 0.070081085 0.03067118 0.08224116 -0.09188921 -0.044049792 0.051540807
-0.1258564 0.09714554 -0.059084393 0.10897608 0.10665907 0.028064296 -0.12288654 0.12664701
-0.042751044 -0.1286537 -0.022086993 -0.1381506 0.062050804 0.0062051415 0.07104324 -0.12192034
-0.047681093 -0.106744505 -0.11713298 -0.053338833 0.13829897 0.089646146 0.09470774 0.13527457
0.09013502 -0.08196576 -0.04204441 -0.02949287 -0.068325676 -0.019668281 -0.098789796 0.08641186
0.12990524 -0.056504257 0.021095648 -0.13215272 0.03968571 -0.08744943 0.09541209 -0.07939635
-0.015507683 0.034878418 -0.14783421 -0.15024959 0.098490134 0.021739408 0.112527356 0.011516184
0.114458546 -0.044071443 -0.019461602 -0.14784071 -0.05405297 -0.08176104 0.049115717 -0.024705648
-0.02304463 0.15273385 0.10991885 -0.06556111 0.056469023 0.016756088 0.016677618 0.085643545
0.03291139 0.1012768 -0.026628643 0.063978195 -0.029018521 0.15802957 0.0070087314 -0.13408317
-0.12971936 0.024440676 -0.121841475 0.15228643 -0.1466088 -0.021076635 -0.060185246 0.1267883
-0.11302824 0.05595322 0.08593327 -0.0660671 0.08593202 -0.027995676 -0.10281916 -0.041511327
-0.09390223 0.07091251 0.08993393 -0.12670378 0.13095473 0.019125566 -0.042567514 -0.03340596
-0.087401934 -0.02387993 -0.09415879 -0.12032471 -0.005385816 0.055813476 -0.025788859 -0.13093866
0.10146783 -0.13642417 0.065531835 -0.05319909 -0.027112752 -0.14648904 0.1468621 -0.12779284
-0.058359794 0.066936865 -0.0488917 -0.00024540722 -0.08746801 0.044922218 0.14900176 -0.06217687
00000000: 8ddd 093e 30b2 9abc da43 e23d 1094 bd3c
00000010: a204 f53d a4f8 b4bd d0bc 483d 0030 423a
00000020: dd4f bdbd c074 c13b 128e 25bd 727e c63d
00000030: 400c 37bb 4699 e3bd 8ebf ee3d 3039 723d
00000040: 31e7 17be f2b4 6fbd fa8d debd b6d6 edbd
00000050: a7a7 0ebe 800c a9ba 7068 2ebc e88e 8cbd
00000060: a380 d3bd 2060 d33b eab6 57bd ccf9 05be
00000070: a05c 49bd 16fb 02be 174f 1e3e a8e8 e2bd
00000080: dff0 9dbd 52ec 1fbe ac86 8f3d 2042 fb3c
00000090: 0e6e a83d 6930 bcbd 8e6d 34bd 741c 533d
000000a0: 80e0 00be 3ef4 c63d 7a02 72bd da2e df3d
000000b0: 1270 da3d 18e7 e53c f0ab fbbd c1af 013e
000000c0: b81b 2fbd ccbd 03be c8ef b4bc 5a77 0dbe
000000d0: fc28 7e3d 8054 cb3b 1e7f 913d 5fb1 f9bd
000000e0: 404d 43bd dd9c dabd 6ae3 efbd d279 5abd
000000f0: 3f9e 0d3e 6698 b73d 22f6 c13d 6b85 0a3e
00000100: b698 b83d aadd a7bd c236 2cbd 089b f1bc
00000110: 55ee 8bbd 601f a1bc 4e52 cabd b4f8 b03d
00000120: e105 053e 0271 67bd c8d0 ac3c 0b53 07be
00000130: 7c8d 223d b018 b3bd 6a67 c33d 8e9a a2bd
00000140: f013 7ebc acdc 0e3d da61 17be 07db 19be
00000150: 32b5 c93d d816 b23c be74 e63d 60ae 3c3c
00000160: 3e69 ea3d 4284 34bd f06d 9fbc 8e63 17be
00000170: a666 5dbd 5572 a7bd 902d 493d 8063 cabc
00000180: 18c8 bcbc 4366 1c3e 221d e13d e744 86bd
00000190: 104c 673d 1044 893c 809f 883c e265 af3d
000001a0: 18ce 063d 366a cf3d 5024 dabc 0007 833d
000001b0: 40b8 edbc 81d2 213e 80a9 e53b 194d 09be
000001c0: 27d5 04be d037 c83c 0688 f9bd f9f0 1b3e
000001d0: 9e20 16be e8a8 acbc ce84 76bd cbd4 013e
000001e0: 5a7b e7bd 342f 653d c8fd af3d 304e 87bd
000001f0: 20fd af3d 3057 e5bc da92 d2bd c807 2abd
00000200: d04f c0bd 943a 913d 482f b83d a3be 01be
00000210: ff18 063e 38ad 9c3c 465b 2ebd b0d4 08bd
00000220: c9ff b2bd d89f c3bc 53d6 c0bd cd6c f6bd
00000230: 807b b0bb ac9c 643d 2843 d3bc c914 06be
00000240: 5ece cf3d c7b2 0bbe 8e35 863d 4ae7 59bd
00000250: 901b debc 3901 16be 0563 163e 20dc 02be
00000260: ae0a 6fbd 3216 893d aa42 48bd 00aa 80b9
00000270: 6e22 b3bd 5c00 383d eb93 183e 2cad 7ebd

lstm.bias_hh_l1 f4 [160]
-0.012531742 0.15490969 0.10756768 0.11856656 -0.06457176 -0.028647602 -0.08803229 -0.09736259
0.06686264 -0.11554904 0.10874595 -0.14898954 0.074605286 0.095955536 0.09261964 0.083335966
0.12680261 -0.0842495 0.049824253 0.0516001 0.14826979 0.15032242 0.15502466 0.14663379
0.005681306 -0.09696598 0.10231872 0.0807654 0.01438351 0.042012766 -0.085809164 0.027764544
-0.14311422 0.05132556 -0.0133886635 -0.12258722 0.085913554 -0.11747253 0.036016926 0.016529173
-0.04122696 0.10156275 0.13643233 0.07361393 0.11278848 0.042177856 -0.12719345 -0.0046889335
-0.10193156 -0.13666627 0.01391758 0.00028842688 -0.011732772 -0.06792699 -0.09277485 0.14210875
-0.14106996 -0.1012437 0.07975693 0.06449874 0.06846589 -0.114584185 0.103920475 0.1309958
0.054032788 -0.006100327 -0.11311239 -0.043988585 -0.13124107 0.016032279 -0.063388705 0.11056675
-0.04238402 0.016492963 -0.040166855 0.11593981 -0.09795633 0.12182714 0.09018125 -0.15746613
0.049580336 0.0668346 -0.06269321 0.06550504 -0.06676191 0.15064709 -0.14957513 -0.15584275
-0.0895408 0.0113765 -0.08087808 0.017128274 -0.12449401 -0.092449635 -0.0014218092 0.0546647
0.056493223 0.018011004 -0.15193407 -0.06623596 0.027808443 0.14067574 -0.06626186 0.10556914
-0.11508024 -0.02117458 0.12795039 0.12546872 0.060772285 -0.089279145 0.009495586 0.03237824
0.038729906 -0.13231018 0.023974642 0.11250843 -0.043148465 -0.022904158 -0.15378608 -0.06066583
-0.05426517 -0.059526786 0.117505655 -0.14799154 -0.05544123 0.06629762 -0.09934098 0.03894137
-0.010438204 -0.12539388 0.15541203 0.14821543 0.058635145 -0.05688996 0.123306945 -0.10845494
0.046254367 -0.021238476 0.0877105 0.14053752 0.130973 -0.030590326 0.104001924 0.011685744
0.03928268 0.023232043 0.01318346 0.02937533 -0.04555206 0.08213206 0.08486962 -0.13470948
0.079234496 -0.121457435 -0.027578562 0.115800306 -0.041755438 0.1513056 -0.0030369312 -0.08700907
00000000: f051 4dbc a5a0 1e3e 724c dc3d 06d3 f23d
00000010: 333e 84bd 60ae eabc 464a b4bd 0a66 c7bd
00000020: 48ef 883d faa4 ecbd 32b6 de3d b790 18be
00000030: a8ca 983d 5684 c43d 5eaf bd3d 0cac aa3d
00000040: 8bd8 013e 008b acbd 8414 4c3d a05a 533d
00000050: 09d4 173e 1fee 193e c9be 1e3e 2b27 163e
00000060: 402a ba3b 1a96 c6bd 7a8c d13d 5468 a53d
00000070: d0a8 6b3c 9415 2c3d b7bc afbd 7872 e33c
00000080: 898c 12be c03a 523d 205c 5bbc 020f fbbd
00000090: 72f3 af3d 7095 f0bd 7c86 133d 3068 873c
000000a0: 9add 28bd 2200 d03d ebb4 0b3e e6c2 963d
000000b0: a6fd e63d b0c2 2c3d 003f 02be a0a5 99bb
000000c0: 7ec1 d0bd 3ef2 0bbe 9006 643c 0038 9739
000000d0: d03a 40bc 4e1d 8bbd be00 bebd f584 113e
000000e0: a574 10be db58 cfbd 9a57 a33d ea17 843d
000000f0: d837 8c3d 1dab eabd 42d4 d43d c323 063e
00000100: 7c51 5d3d 40e5 c7bb 78a7 e7bd 602d 34bd
00000110: 0f64 06be 2056 833c f0d1 81bd d270 e23d
00000120: de9a 2dbd 401c 873c 0086 24bd da71 ed3d
00000130: 549d c8bd 8280 f93d f2b0 b83d cd3e 21be
00000140: c014 4b3d 94e0 883d 4c65 80bd 8227 863d
00000150: 78ba 88bd 3b43 1a3e 392a 19be 3e95 1fbe
00000160: 2b61 b7bd 8064 3a3c 68a3 a5bd 9850 8c3c
00000170: b7f6 febd 3c56 bdbd 005c baba 18e8 5f3d
00000180: 7065 673d d08b 933c 9b94 1bbe b8a6 87bd
00000190: 88ce e33c 4d0d 103e 4cb4 87bd a234 d83d
000001a0: 30af ebbd 5076 adbc 6d05 033e df7a 003e
000001b0: 5cec 783d fcd7 b6bd 6093 1b3c 0c9f 043d
000001c0: 40a3 1e3d 527c 07be 7866 c43c d26a e63d
000001d0: 72bc 30bd 80a1 bbbc 197a 1dbe bc7c 78bd
000001e0: 2845 5ebd 5cd2 73bd cea6 f03d 188b 17be
000001f0: 5816 63bd 0cc7 873d 4973 cbbd fc80 1f3d
00000200: 0005 2bbc 4167 00be 5524 1f3e c9c5 173e
00000210: 682b 703d 7205 69bd 5a88 fc3d a01d debd
00000220: 3875 3d3d 50fc adbc 90a1 b33d 11e9 0f3e
00000230: c91d 063e 9098 fabc f6fe d43d 9075 3f3c
00000240: e0e6 203d 2051 be3c 70ff 573c 88a4 f03c
00000250: cc94 3abd da34 a83d 20d0 ad3d 48f1 09be
00000260: b245 a23d adbe f8bd 70ec e1bc b628 ed3d
00000270: c007 2bbd dbef 1a3e 4007 47bb d031 b2bd

lstm.weight_ih_l2 f4 [160, 40]
-0.072866894 0.08597858 0.13989575 0.077513024 -0.12612723 0.053271905 -0.07187152 0.14268221
0.1409268 0.025262803 -0.13017388 0.012910381 0.05262193 0.050767258 0.056684583 0.050056174
0.04418224 0.15727367 0.14326368 -0.08405898 0.05299762 0.016383216 0.12051843 0.14428423
0.041473806 -0.15007554 -0.044143863 -0.014587104 -0.09204247 0.0705788 -0.1567518 -0.053192645
-0.06992121 -0.09343757 0.119917944 -0.14531626 -0.0062921643 0.08696696 -0.0005799979 -0.0014989078
0.053399175 0.03598264 0.118906245 -0.024372667 0.08505835 0.05788365 -0.14407916 0.09708743
-0.0059738755 -0.08182317 -0.11868286 -0.11547582 -0.030566633 0.112417236 0.14846353 -0.006018162
0.14196251 0.03553322 -0.09751461 -0.15545268 0.0055851936 0.0057905316 0.0473333 -0.153934
0.15776186 -0.009630188 -0.1091541 -0.04444795 -0.014332622 0.11627765 -0.1020541 0.09063308
-0.08347029 -0.08420149 -0.15733321 -0.015316516 0.12135805 0.03164248 0.09092812 -0.07753378
0.14053 -0.06845963 -0.0010795146 0.007055521 -0.105826855 0.017203286 -0.0383676 0.12718071
-0.025720462 -0.12086953 -0.026495934 0.00893712 0.13523935 0.12745894 -0.11701854 -0.099966325
-0.019394979 0.07849042 -0.07154538 0.15422215 0.016196609 -0.04187516 -0.11987607 -0.08974326
0.03049764 -0.1438881 -0.13752277 0.01365678 0.020969138 -0.019474477 0.039099142 0.12726311
0.0940222 0.1453173 -0.032868788 -0.12817356 0.12526987 -0.12072867 -0.15506355 -0.0021919608
0.034410655 -0.002263382 0.028349355 -0.062418096 -0.1060269 -0.006842375 -0.1465008 0.11952095
0.12818493 -0.11322853 0.09348051 -0.117219225 0.14401148 0.15304 0.011056423 0.00074599683
-0.066700846 -0.10598296 -0.114721745 0.07169022 -0.123661846 0.122522995 0.0050541162 -0.061122686
0.11381881 -0.05254461 -0.036271498 -0.13935101 0.062074423 0.08678141 -0.011550322 -0.10000184
0.13231952 0.017081097 -0.15259616 -0.08601756 -0.14678873 -0.14285089 0.10015036 0.11265741
0.019183427 0.024266705 -0.053958423 -0.13712338 -0.05591409 0.10761382 -0.0053104013 0.011425406
-0.15616877 -0.065123744 0.13255449 -0.12636852 -0.15289097 0.08652562 -0.07318031 -0.099925235
-0.13542765 0.006880939 0.06254394 -0.09109802 0.049787924 0.011970609 -0.064509146 0.016093299
0.097083345 0.14609544 0.022973537 -0.033354864 0.04298088 -0.027966127 0.10346742 -0.031923965
-0.022453547 -0.12661815 0.1040691 -0.15798269 -0.0714373 0.10071291 0.13242204 -0.10273762
0.03504306 -0.08928088 -0.011488706 0.10158168 0.11978252 -0.072259404 -0.09598444 -0.007838875
0.10049935 -0.038144663 0.098289534 0.13139914 0.14057104 0.09015863 0.104811 -0.0610769
0.046592638 -0.010920346 0.101971194 0.010556921 -0.07644849 0.068524495 -0.12834716 0.14378361
0.14558785 -0.08921121 0.13300271 -0.001416564 0.027413964 0.08746098 -0.007615268 0.027496576
-0.14823304 -0.030715168 0.06973471 -0.06000667 0.07401042 -0.018233523 0.12505282 0.018171266
0.061586887 0.033065304 0.110724166 -0.15074185 0.12598707 -0.1197807 0.07340339 0.06770058
-0.11734932 0.15306242 -0.015409291 0.14896844 -0.026883423 0.08121522 -0.04421038 0.114965215
00000000: 3d3b 95bd 8a15 b03d d540 0f3e 26bf 9e3d
00000010: 7f27 01be a433 5a3d 6031 93bd 491b 123e
00000020: 1d4f 103e f0f3 ce3c 4d4c 05be 1086 533c
00000030: 188a 573d 54f1 4f3d 182e 683d b407 4d3d
00000040: 70f8 343d 590c 213e b7b3 123e 1d27 acbd
00000050: 0814 593d 1836 863c 5ed2 f63d 3fbf 133e
00000060: 70e0 293d 67ad 19be 32d0 34bd c0fe 6ebc
00000070: c380 bcbd 9e8b 903d 8b83 20be 88e0 59bd
00000080: da32 8fbd 325c bfbd 8a97 f53d c9cd 14be
00000090: 802e cebb bc1b b23d 000b 18ba 0077 c4ba
000000a0: 18b9 5a3d 8862 133d 1e85 f33d 30a9 c7bc
000000b0: 1233 ae3d 6817 6d3d 7d89 13be c6d5 c63d
000000c0: 80c0 c3bb e892 a7bd 0010 f3bd 967e ecbd
000000d0: e066 fabc 023b e63d d306 183e 0034 c5bb
000000e0: 9f5e 113e 488b 113d bdb5 c7bd fd2e 1fbe
000000f0: 0004 b73b 80be bd3b 90e0 413d e0a0 1dbe
00000100: 538c 213e f0c7 1dbc 2f8c dfbd 0e0f 36bd
00000110: 60d3 6abc fa22 ee3d bd01 d1bd d69d b93d
00000120: 79f2 aabd d571 acbd f51b 21be 20f2 7abc
00000130: 928a f83d 8c9b 013d 8638 ba3d 08ca 9ebd
00000140: 19e7 0f3e 9034 8cbd 807e 8dba 0032 e73b
00000150: c0bb d8bd e8ed 8c3c 5827 1dbd a93b 023e
00000160: b8b3 d2bc 728a f7bd 000e d9bc 006d 123c
00000170: 2f7c 0a3e 9984 023e 6ba7 efbd 25bb ccbd
00000180: 38e2 9ebc 96bf a03d 6286 92bd 69ec 1d3e
00000190: c0ae 843c 4a85 2bbd 9681 f5bd 50cb b7bd
000001a0: 30d6 f93c 6757 13be c5d2 0cbe b0c0 5f3c
000001b0: 78c7 ab3c f088 9fbc 6c26 203d 4351 023e
000001c0: b68e c03d 0fce 143e 6ca1 06bd ee3f 03be
000001d0: bf46 003e 9840 f7bd fbc8 1ebe 00a7 0fbb
000001e0: 30f2 0c3d 4055 14bb e83c e83c 1eaa 7fbd
000001f0: a224 d9bd 0036 e0bb 4e04 16be 66c7 f43d
00000200: e942 033e 5ce4 e7bd b672 bf3d a210 f0bd
00000210: bf77 133e 85b6 1c3e 0026 353c 008f 433a
00000220: 749a 88bd 980d d9bd 3cf3 eabd 52d2 923d
00000230: 6c42 fdbd 56ed fa3d 009d a53b c85b 7abd
00000240: d619 e93d 0439 57bd 6c91 14bd 08b2 0ebe
00000250: c041 7e3d 74ba b13d 903d 3dbc c4cd ccbd
00000260: c57e 073e a8ed 8b3c 2b42 1cbe f929 b0bd
00000270: c94f 16be 8147 12be a21b cd3d eeb8 e63d
00000280: 9026 9d3c f8ca c63c 8203 5dbd 126a 0cbe
00000290: 2c06 65bd a264 dc3d e002 aebb a031 3b3c
000002a0: b5ea 1fbe 995f 85bd 5dbc 073e c066 01be
000002b0: 738f 1cbe 5834 b13d 8fdf 95bd 9aa5 ccbd
000002c0: 8cad 0abe 8079 e13b 0a17 803d 9991 babd
000002d0: 6cee 4b3d 6020 443c 5f1d 84bd 18d6 833c
000002e0: a2d3 c63d 0b9a 153e 0033 bc3c 1c9f 08bd
000002f0: b80c 303d 3819 e5bc bae6 d33d b4c2 02bd
00000300: 80f0 b7bc 30a8 01be 2e22 d53d 37c6 21be
00000310: b84d 92bd 9242 ce3d a599 073e 1a68 d2bd
00000320: 5089 0f3d e5d8 b6bd 203b 3cbc 0e0a d03d
00000330: 8a50 f53d bdfc 93bd 7d93 c4bd a06e 00bc
00000340: 9ad2 cd3d 943d 1cbd 064c c93d 7f8d 063e
00000350: dbf1 0f3e 16a5 b83d 26a7 d63d c62b 7abd
00000360: ecd7 3e3d 40eb 32bc 46d6 d03d f0f6 2c3c
00000370: 0791 9cbd 9256 8c3d 706d 03be 033c 133e
00000380: fb14 153e 5eb4 b6bd dd31 083e 00ac b9ba
00000390: 4093 e03c be1e b33d 8089 f9bb 8040 e13c
000003a0: 67ca 17be 609e fbbc 12d1 8e3d 8ec9 75bd
000003b0: c692 973d 785e 95bc d90d 003e e8db 943c
000003c0: 8842 7c3d 7c6f 073d 5ac3 e23d 125c 1abe
000003d0: c102 013e 954f f5bd 8454 963d 9aa6 8a3d
000003e0: d754 f0bd 65bc 1c3e 4077 7cbc 2f8b 183e
000003f0: a03a dcbc 2a54 a63d f215 35bd e272 eb3d
